<?xml version="1.0" ?>
<net name="face-detection-0200" version="10">
	<layers>
		<layer id="0" name="1601160511073" type="Const" version="opset1">
			<data element_type="f16" offset="0" shape="" size="2"/>
			<output>
				<port id="0" precision="FP16"/>
			</output>
		</layer>
		<layer id="1" name="160216069519" type="Const" version="opset1">
			<data element_type="f16" offset="2" shape="" size="2"/>
			<output>
				<port id="0" precision="FP16"/>
			</output>
		</layer>
		<layer id="2" name="160316079876" type="Const" version="opset1">
			<data element_type="f16" offset="0" shape="" size="2"/>
			<output>
				<port id="0" precision="FP16"/>
			</output>
		</layer>
		<layer id="3" name="160416089531" type="Const" version="opset1">
			<data element_type="f16" offset="2" shape="" size="2"/>
			<output>
				<port id="0" precision="FP16"/>
			</output>
		</layer>
		<layer id="4" name="2061206510770" type="Const" version="opset1">
			<data element_type="f16" offset="4" shape="" size="2"/>
			<output>
				<port id="0" precision="FP16"/>
			</output>
		</layer>
		<layer id="5" name="2062206610938" type="Const" version="opset1">
			<data element_type="f16" offset="6" shape="" size="2"/>
			<output>
				<port id="0" precision="FP16"/>
			</output>
		</layer>
		<layer id="6" name="206320679939" type="Const" version="opset1">
			<data element_type="f16" offset="4" shape="" size="2"/>
			<output>
				<port id="0" precision="FP16"/>
			</output>
		</layer>
		<layer id="7" name="206420689945" type="Const" version="opset1">
			<data element_type="f16" offset="6" shape="" size="2"/>
			<output>
				<port id="0" precision="FP16"/>
			</output>
		</layer>
		<layer id="8" name="1901190510620" type="Const" version="opset1">
			<data element_type="f16" offset="8" shape="" size="2"/>
			<output>
				<port id="0" precision="FP16"/>
			</output>
		</layer>
		<layer id="9" name="1902190610113" type="Const" version="opset1">
			<data element_type="f16" offset="10" shape="" size="2"/>
			<output>
				<port id="0" precision="FP16"/>
			</output>
		</layer>
		<layer id="10" name="190319079834" type="Const" version="opset1">
			<data element_type="f16" offset="8" shape="" size="2"/>
			<output>
				<port id="0" precision="FP16"/>
			</output>
		</layer>
		<layer id="11" name="190419089477" type="Const" version="opset1">
			<data element_type="f16" offset="10" shape="" size="2"/>
			<output>
				<port id="0" precision="FP16"/>
			</output>
		</layer>
		<layer id="12" name="242124259828" type="Const" version="opset1">
			<data element_type="f16" offset="0" shape="" size="2"/>
			<output>
				<port id="0" precision="FP16"/>
			</output>
		</layer>
		<layer id="13" name="2422242610146" type="Const" version="opset1">
			<data element_type="f16" offset="12" shape="" size="2"/>
			<output>
				<port id="0" precision="FP16"/>
			</output>
		</layer>
		<layer id="14" name="2423242710731" type="Const" version="opset1">
			<data element_type="f16" offset="0" shape="" size="2"/>
			<output>
				<port id="0" precision="FP16"/>
			</output>
		</layer>
		<layer id="15" name="2424242810716" type="Const" version="opset1">
			<data element_type="f16" offset="12" shape="" size="2"/>
			<output>
				<port id="0" precision="FP16"/>
			</output>
		</layer>
		<layer id="16" name="1561156510452" type="Const" version="opset1">
			<data element_type="f16" offset="14" shape="1,576,1,1" size="1152"/>
			<output>
				<port id="0" precision="FP16">
					<dim>1</dim>
					<dim>576</dim>
					<dim>1</dim>
					<dim>1</dim>
				</port>
			</output>
		</layer>
		<layer id="17" name="1562156610137" type="Const" version="opset1">
			<data element_type="f16" offset="1166" shape="1,576,1,1" size="1152"/>
			<output>
				<port id="0" precision="FP16">
					<dim>1</dim>
					<dim>576</dim>
					<dim>1</dim>
					<dim>1</dim>
				</port>
			</output>
		</layer>
		<layer id="18" name="1563156710179" type="Const" version="opset1">
			<data element_type="f16" offset="14" shape="1,576,1,1" size="1152"/>
			<output>
				<port id="0" precision="FP16">
					<dim>1</dim>
					<dim>576</dim>
					<dim>1</dim>
					<dim>1</dim>
				</port>
			</output>
		</layer>
		<layer id="19" name="1564156810206" type="Const" version="opset1">
			<data element_type="f16" offset="1166" shape="1,576,1,1" size="1152"/>
			<output>
				<port id="0" precision="FP16">
					<dim>1</dim>
					<dim>576</dim>
					<dim>1</dim>
					<dim>1</dim>
				</port>
			</output>
		</layer>
		<layer id="20" name="191119159762" type="Const" version="opset1">
			<data element_type="f16" offset="2318" shape="" size="2"/>
			<output>
				<port id="0" precision="FP16"/>
			</output>
		</layer>
		<layer id="21" name="191219169597" type="Const" version="opset1">
			<data element_type="f16" offset="2320" shape="" size="2"/>
			<output>
				<port id="0" precision="FP16"/>
			</output>
		</layer>
		<layer id="22" name="1913191710935" type="Const" version="opset1">
			<data element_type="f16" offset="2318" shape="" size="2"/>
			<output>
				<port id="0" precision="FP16"/>
			</output>
		</layer>
		<layer id="23" name="1914191810692" type="Const" version="opset1">
			<data element_type="f16" offset="2320" shape="" size="2"/>
			<output>
				<port id="0" precision="FP16"/>
			</output>
		</layer>
		<layer id="24" name="1661166510581" type="Const" version="opset1">
			<data element_type="f16" offset="2322" shape="" size="2"/>
			<output>
				<port id="0" precision="FP16"/>
			</output>
		</layer>
		<layer id="25" name="1662166610062" type="Const" version="opset1">
			<data element_type="f16" offset="2324" shape="" size="2"/>
			<output>
				<port id="0" precision="FP16"/>
			</output>
		</layer>
		<layer id="26" name="1663166710470" type="Const" version="opset1">
			<data element_type="f16" offset="2322" shape="" size="2"/>
			<output>
				<port id="0" precision="FP16"/>
			</output>
		</layer>
		<layer id="27" name="1664166810734" type="Const" version="opset1">
			<data element_type="f16" offset="2324" shape="" size="2"/>
			<output>
				<port id="0" precision="FP16"/>
			</output>
		</layer>
		<layer id="28" name="208120859378" type="Const" version="opset1">
			<data element_type="f16" offset="0" shape="" size="2"/>
			<output>
				<port id="0" precision="FP16"/>
			</output>
		</layer>
		<layer id="29" name="2082208610038" type="Const" version="opset1">
			<data element_type="f16" offset="2326" shape="" size="2"/>
			<output>
				<port id="0" precision="FP16"/>
			</output>
		</layer>
		<layer id="30" name="2083208710131" type="Const" version="opset1">
			<data element_type="f16" offset="0" shape="" size="2"/>
			<output>
				<port id="0" precision="FP16"/>
			</output>
		</layer>
		<layer id="31" name="2084208810419" type="Const" version="opset1">
			<data element_type="f16" offset="2326" shape="" size="2"/>
			<output>
				<port id="0" precision="FP16"/>
			</output>
		</layer>
		<layer id="32" name="2641264510509" type="Const" version="opset1">
			<data element_type="f16" offset="14" shape="1,576,1,1" size="1152"/>
			<output>
				<port id="0" precision="FP16">
					<dim>1</dim>
					<dim>576</dim>
					<dim>1</dim>
					<dim>1</dim>
				</port>
			</output>
		</layer>
		<layer id="33" name="264226469885" type="Const" version="opset1">
			<data element_type="f16" offset="2328" shape="1,576,1,1" size="1152"/>
			<output>
				<port id="0" precision="FP16">
					<dim>1</dim>
					<dim>576</dim>
					<dim>1</dim>
					<dim>1</dim>
				</port>
			</output>
		</layer>
		<layer id="34" name="2643264711049" type="Const" version="opset1">
			<data element_type="f16" offset="14" shape="1,576,1,1" size="1152"/>
			<output>
				<port id="0" precision="FP16">
					<dim>1</dim>
					<dim>576</dim>
					<dim>1</dim>
					<dim>1</dim>
				</port>
			</output>
		</layer>
		<layer id="35" name="2644264810959" type="Const" version="opset1">
			<data element_type="f16" offset="2328" shape="1,576,1,1" size="1152"/>
			<output>
				<port id="0" precision="FP16">
					<dim>1</dim>
					<dim>576</dim>
					<dim>1</dim>
					<dim>1</dim>
				</port>
			</output>
		</layer>
		<layer id="36" name="1671167510551" type="Const" version="opset1">
			<data element_type="f16" offset="3480" shape="" size="2"/>
			<output>
				<port id="0" precision="FP16"/>
			</output>
		</layer>
		<layer id="37" name="167216769711" type="Const" version="opset1">
			<data element_type="f16" offset="3482" shape="" size="2"/>
			<output>
				<port id="0" precision="FP16"/>
			</output>
		</layer>
		<layer id="38" name="167316779705" type="Const" version="opset1">
			<data element_type="f16" offset="3480" shape="" size="2"/>
			<output>
				<port id="0" precision="FP16"/>
			</output>
		</layer>
		<layer id="39" name="167416789564" type="Const" version="opset1">
			<data element_type="f16" offset="3482" shape="" size="2"/>
			<output>
				<port id="0" precision="FP16"/>
			</output>
		</layer>
		<layer id="40" name="1521152510011" type="Const" version="opset1">
			<data element_type="f16" offset="0" shape="" size="2"/>
			<output>
				<port id="0" precision="FP16"/>
			</output>
		</layer>
		<layer id="41" name="1522152610674" type="Const" version="opset1">
			<data element_type="f16" offset="3484" shape="" size="2"/>
			<output>
				<port id="0" precision="FP16"/>
			</output>
		</layer>
		<layer id="42" name="152315279738" type="Const" version="opset1">
			<data element_type="f16" offset="0" shape="" size="2"/>
			<output>
				<port id="0" precision="FP16"/>
			</output>
		</layer>
		<layer id="43" name="152415289618" type="Const" version="opset1">
			<data element_type="f16" offset="3484" shape="" size="2"/>
			<output>
				<port id="0" precision="FP16"/>
			</output>
		</layer>
		<layer id="44" name="158115859672" type="Const" version="opset1">
			<data element_type="f16" offset="3486" shape="1,384,1,1" size="768"/>
			<output>
				<port id="0" precision="FP16">
					<dim>1</dim>
					<dim>384</dim>
					<dim>1</dim>
					<dim>1</dim>
				</port>
			</output>
		</layer>
		<layer id="45" name="1582158610806" type="Const" version="opset1">
			<data element_type="f16" offset="4254" shape="1,384,1,1" size="768"/>
			<output>
				<port id="0" precision="FP16">
					<dim>1</dim>
					<dim>384</dim>
					<dim>1</dim>
					<dim>1</dim>
				</port>
			</output>
		</layer>
		<layer id="46" name="158315879393" type="Const" version="opset1">
			<data element_type="f16" offset="3486" shape="1,384,1,1" size="768"/>
			<output>
				<port id="0" precision="FP16">
					<dim>1</dim>
					<dim>384</dim>
					<dim>1</dim>
					<dim>1</dim>
				</port>
			</output>
		</layer>
		<layer id="47" name="1584158810449" type="Const" version="opset1">
			<data element_type="f16" offset="4254" shape="1,384,1,1" size="768"/>
			<output>
				<port id="0" precision="FP16">
					<dim>1</dim>
					<dim>384</dim>
					<dim>1</dim>
					<dim>1</dim>
				</port>
			</output>
		</layer>
		<layer id="48" name="2041204510065" type="Const" version="opset1">
			<data element_type="f16" offset="5022" shape="" size="2"/>
			<output>
				<port id="0" precision="FP16"/>
			</output>
		</layer>
		<layer id="49" name="204220469528" type="Const" version="opset1">
			<data element_type="f16" offset="5024" shape="" size="2"/>
			<output>
				<port id="0" precision="FP16"/>
			</output>
		</layer>
		<layer id="50" name="2043204710554" type="Const" version="opset1">
			<data element_type="f16" offset="5022" shape="" size="2"/>
			<output>
				<port id="0" precision="FP16"/>
			</output>
		</layer>
		<layer id="51" name="2044204810209" type="Const" version="opset1">
			<data element_type="f16" offset="5024" shape="" size="2"/>
			<output>
				<port id="0" precision="FP16"/>
			</output>
		</layer>
		<layer id="52" name="1721172510704" type="Const" version="opset1">
			<data element_type="f16" offset="3480" shape="" size="2"/>
			<output>
				<port id="0" precision="FP16"/>
			</output>
		</layer>
		<layer id="53" name="1722172610905" type="Const" version="opset1">
			<data element_type="f16" offset="3482" shape="" size="2"/>
			<output>
				<port id="0" precision="FP16"/>
			</output>
		</layer>
		<layer id="54" name="172317279774" type="Const" version="opset1">
			<data element_type="f16" offset="3480" shape="" size="2"/>
			<output>
				<port id="0" precision="FP16"/>
			</output>
		</layer>
		<layer id="55" name="1724172810230" type="Const" version="opset1">
			<data element_type="f16" offset="3482" shape="" size="2"/>
			<output>
				<port id="0" precision="FP16"/>
			</output>
		</layer>
		<layer id="56" name="180118059987" type="Const" version="opset1">
			<data element_type="f16" offset="0" shape="" size="2"/>
			<output>
				<port id="0" precision="FP16"/>
			</output>
		</layer>
		<layer id="57" name="180218069858" type="Const" version="opset1">
			<data element_type="f16" offset="5026" shape="" size="2"/>
			<output>
				<port id="0" precision="FP16"/>
			</output>
		</layer>
		<layer id="58" name="180318079783" type="Const" version="opset1">
			<data element_type="f16" offset="0" shape="" size="2"/>
			<output>
				<port id="0" precision="FP16"/>
			</output>
		</layer>
		<layer id="59" name="180418089681" type="Const" version="opset1">
			<data element_type="f16" offset="5026" shape="" size="2"/>
			<output>
				<port id="0" precision="FP16"/>
			</output>
		</layer>
		<layer id="60" name="2501250510602" type="Const" version="opset1">
			<data element_type="f16" offset="3486" shape="1,384,1,1" size="768"/>
			<output>
				<port id="0" precision="FP16">
					<dim>1</dim>
					<dim>384</dim>
					<dim>1</dim>
					<dim>1</dim>
				</port>
			</output>
		</layer>
		<layer id="61" name="250225069990" type="Const" version="opset1">
			<data element_type="f16" offset="5028" shape="1,384,1,1" size="768"/>
			<output>
				<port id="0" precision="FP16">
					<dim>1</dim>
					<dim>384</dim>
					<dim>1</dim>
					<dim>1</dim>
				</port>
			</output>
		</layer>
		<layer id="62" name="250325079639" type="Const" version="opset1">
			<data element_type="f16" offset="3486" shape="1,384,1,1" size="768"/>
			<output>
				<port id="0" precision="FP16">
					<dim>1</dim>
					<dim>384</dim>
					<dim>1</dim>
					<dim>1</dim>
				</port>
			</output>
		</layer>
		<layer id="63" name="2504250810026" type="Const" version="opset1">
			<data element_type="f16" offset="5028" shape="1,384,1,1" size="768"/>
			<output>
				<port id="0" precision="FP16">
					<dim>1</dim>
					<dim>384</dim>
					<dim>1</dim>
					<dim>1</dim>
				</port>
			</output>
		</layer>
		<layer id="64" name="1731173510353" type="Const" version="opset1">
			<data element_type="f16" offset="5796" shape="" size="2"/>
			<output>
				<port id="0" precision="FP16"/>
			</output>
		</layer>
		<layer id="65" name="1732173610821" type="Const" version="opset1">
			<data element_type="f16" offset="5798" shape="" size="2"/>
			<output>
				<port id="0" precision="FP16"/>
			</output>
		</layer>
		<layer id="66" name="1733173710389" type="Const" version="opset1">
			<data element_type="f16" offset="5796" shape="" size="2"/>
			<output>
				<port id="0" precision="FP16"/>
			</output>
		</layer>
		<layer id="67" name="1734173810992" type="Const" version="opset1">
			<data element_type="f16" offset="5798" shape="" size="2"/>
			<output>
				<port id="0" precision="FP16"/>
			</output>
		</layer>
		<layer id="68" name="2561256510866" type="Const" version="opset1">
			<data element_type="f16" offset="5800" shape="" size="2"/>
			<output>
				<port id="0" precision="FP16"/>
			</output>
		</layer>
		<layer id="69" name="256225669633" type="Const" version="opset1">
			<data element_type="f16" offset="5802" shape="" size="2"/>
			<output>
				<port id="0" precision="FP16"/>
			</output>
		</layer>
		<layer id="70" name="256325679408" type="Const" version="opset1">
			<data element_type="f16" offset="5800" shape="" size="2"/>
			<output>
				<port id="0" precision="FP16"/>
			</output>
		</layer>
		<layer id="71" name="2564256810857" type="Const" version="opset1">
			<data element_type="f16" offset="5802" shape="" size="2"/>
			<output>
				<port id="0" precision="FP16"/>
			</output>
		</layer>
		<layer id="72" name="1421142510701" type="Const" version="opset1">
			<data element_type="f16" offset="0" shape="" size="2"/>
			<output>
				<port id="0" precision="FP16"/>
			</output>
		</layer>
		<layer id="73" name="142214269543" type="Const" version="opset1">
			<data element_type="f16" offset="5804" shape="" size="2"/>
			<output>
				<port id="0" precision="FP16"/>
			</output>
		</layer>
		<layer id="74" name="142314279663" type="Const" version="opset1">
			<data element_type="f16" offset="0" shape="" size="2"/>
			<output>
				<port id="0" precision="FP16"/>
			</output>
		</layer>
		<layer id="75" name="142414289777" type="Const" version="opset1">
			<data element_type="f16" offset="5804" shape="" size="2"/>
			<output>
				<port id="0" precision="FP16"/>
			</output>
		</layer>
		<layer id="76" name="154115459651" type="Const" version="opset1">
			<data element_type="f16" offset="3486" shape="1,384,1,1" size="768"/>
			<output>
				<port id="0" precision="FP16">
					<dim>1</dim>
					<dim>384</dim>
					<dim>1</dim>
					<dim>1</dim>
				</port>
			</output>
		</layer>
		<layer id="77" name="1542154610299" type="Const" version="opset1">
			<data element_type="f16" offset="5806" shape="1,384,1,1" size="768"/>
			<output>
				<port id="0" precision="FP16">
					<dim>1</dim>
					<dim>384</dim>
					<dim>1</dim>
					<dim>1</dim>
				</port>
			</output>
		</layer>
		<layer id="78" name="154315479867" type="Const" version="opset1">
			<data element_type="f16" offset="3486" shape="1,384,1,1" size="768"/>
			<output>
				<port id="0" precision="FP16">
					<dim>1</dim>
					<dim>384</dim>
					<dim>1</dim>
					<dim>1</dim>
				</port>
			</output>
		</layer>
		<layer id="79" name="154415489399" type="Const" version="opset1">
			<data element_type="f16" offset="5806" shape="1,384,1,1" size="768"/>
			<output>
				<port id="0" precision="FP16">
					<dim>1</dim>
					<dim>384</dim>
					<dim>1</dim>
					<dim>1</dim>
				</port>
			</output>
		</layer>
		<layer id="80" name="2571257510614" type="Const" version="opset1">
			<data element_type="f16" offset="6574" shape="" size="2"/>
			<output>
				<port id="0" precision="FP16"/>
			</output>
		</layer>
		<layer id="81" name="2572257610815" type="Const" version="opset1">
			<data element_type="f16" offset="6576" shape="" size="2"/>
			<output>
				<port id="0" precision="FP16"/>
			</output>
		</layer>
		<layer id="82" name="2573257710404" type="Const" version="opset1">
			<data element_type="f16" offset="6574" shape="" size="2"/>
			<output>
				<port id="0" precision="FP16"/>
			</output>
		</layer>
		<layer id="83" name="2574257810743" type="Const" version="opset1">
			<data element_type="f16" offset="6576" shape="" size="2"/>
			<output>
				<port id="0" precision="FP16"/>
			</output>
		</layer>
		<layer id="84" name="1641164510677" type="Const" version="opset1">
			<data element_type="f16" offset="6578" shape="" size="2"/>
			<output>
				<port id="0" precision="FP16"/>
			</output>
		</layer>
		<layer id="85" name="1642164610197" type="Const" version="opset1">
			<data element_type="f16" offset="6580" shape="" size="2"/>
			<output>
				<port id="0" precision="FP16"/>
			</output>
		</layer>
		<layer id="86" name="164316479699" type="Const" version="opset1">
			<data element_type="f16" offset="6578" shape="" size="2"/>
			<output>
				<port id="0" precision="FP16"/>
			</output>
		</layer>
		<layer id="87" name="1644164810827" type="Const" version="opset1">
			<data element_type="f16" offset="6580" shape="" size="2"/>
			<output>
				<port id="0" precision="FP16"/>
			</output>
		</layer>
		<layer id="88" name="1481148510737" type="Const" version="opset1">
			<data element_type="f16" offset="0" shape="" size="2"/>
			<output>
				<port id="0" precision="FP16"/>
			</output>
		</layer>
		<layer id="89" name="1482148610545" type="Const" version="opset1">
			<data element_type="f16" offset="6582" shape="" size="2"/>
			<output>
				<port id="0" precision="FP16"/>
			</output>
		</layer>
		<layer id="90" name="1483148710368" type="Const" version="opset1">
			<data element_type="f16" offset="0" shape="" size="2"/>
			<output>
				<port id="0" precision="FP16"/>
			</output>
		</layer>
		<layer id="91" name="1484148810071" type="Const" version="opset1">
			<data element_type="f16" offset="6582" shape="" size="2"/>
			<output>
				<port id="0" precision="FP16"/>
			</output>
		</layer>
		<layer id="92" name="146114659930" type="Const" version="opset1">
			<data element_type="f16" offset="3486" shape="1,384,1,1" size="768"/>
			<output>
				<port id="0" precision="FP16">
					<dim>1</dim>
					<dim>384</dim>
					<dim>1</dim>
					<dim>1</dim>
				</port>
			</output>
		</layer>
		<layer id="93" name="1462146610401" type="Const" version="opset1">
			<data element_type="f16" offset="6584" shape="1,384,1,1" size="768"/>
			<output>
				<port id="0" precision="FP16">
					<dim>1</dim>
					<dim>384</dim>
					<dim>1</dim>
					<dim>1</dim>
				</port>
			</output>
		</layer>
		<layer id="94" name="1463146710245" type="Const" version="opset1">
			<data element_type="f16" offset="3486" shape="1,384,1,1" size="768"/>
			<output>
				<port id="0" precision="FP16">
					<dim>1</dim>
					<dim>384</dim>
					<dim>1</dim>
					<dim>1</dim>
				</port>
			</output>
		</layer>
		<layer id="95" name="1464146810443" type="Const" version="opset1">
			<data element_type="f16" offset="6584" shape="1,384,1,1" size="768"/>
			<output>
				<port id="0" precision="FP16">
					<dim>1</dim>
					<dim>384</dim>
					<dim>1</dim>
					<dim>1</dim>
				</port>
			</output>
		</layer>
		<layer id="96" name="1651165510977" type="Const" version="opset1">
			<data element_type="f16" offset="7352" shape="" size="2"/>
			<output>
				<port id="0" precision="FP16"/>
			</output>
		</layer>
		<layer id="97" name="165216569981" type="Const" version="opset1">
			<data element_type="f16" offset="7354" shape="" size="2"/>
			<output>
				<port id="0" precision="FP16"/>
			</output>
		</layer>
		<layer id="98" name="165316579816" type="Const" version="opset1">
			<data element_type="f16" offset="7352" shape="" size="2"/>
			<output>
				<port id="0" precision="FP16"/>
			</output>
		</layer>
		<layer id="99" name="1654165810455" type="Const" version="opset1">
			<data element_type="f16" offset="7354" shape="" size="2"/>
			<output>
				<port id="0" precision="FP16"/>
			</output>
		</layer>
		<layer id="100" name="2321232510671" type="Const" version="opset1">
			<data element_type="f16" offset="0" shape="" size="2"/>
			<output>
				<port id="0" precision="FP16"/>
			</output>
		</layer>
		<layer id="101" name="232223269732" type="Const" version="opset1">
			<data element_type="f16" offset="7356" shape="" size="2"/>
			<output>
				<port id="0" precision="FP16"/>
			</output>
		</layer>
		<layer id="102" name="2323232710464" type="Const" version="opset1">
			<data element_type="f16" offset="0" shape="" size="2"/>
			<output>
				<port id="0" precision="FP16"/>
			</output>
		</layer>
		<layer id="103" name="2324232810194" type="Const" version="opset1">
			<data element_type="f16" offset="7356" shape="" size="2"/>
			<output>
				<port id="0" precision="FP16"/>
			</output>
		</layer>
		<layer id="104" name="194119459498" type="Const" version="opset1">
			<data element_type="f16" offset="7358" shape="1,192,1,1" size="384"/>
			<output>
				<port id="0" precision="FP16">
					<dim>1</dim>
					<dim>192</dim>
					<dim>1</dim>
					<dim>1</dim>
				</port>
			</output>
		</layer>
		<layer id="105" name="194219469687" type="Const" version="opset1">
			<data element_type="f16" offset="7742" shape="1,192,1,1" size="384"/>
			<output>
				<port id="0" precision="FP16">
					<dim>1</dim>
					<dim>192</dim>
					<dim>1</dim>
					<dim>1</dim>
				</port>
			</output>
		</layer>
		<layer id="106" name="1943194710104" type="Const" version="opset1">
			<data element_type="f16" offset="7358" shape="1,192,1,1" size="384"/>
			<output>
				<port id="0" precision="FP16">
					<dim>1</dim>
					<dim>192</dim>
					<dim>1</dim>
					<dim>1</dim>
				</port>
			</output>
		</layer>
		<layer id="107" name="194419489675" type="Const" version="opset1">
			<data element_type="f16" offset="7742" shape="1,192,1,1" size="384"/>
			<output>
				<port id="0" precision="FP16">
					<dim>1</dim>
					<dim>192</dim>
					<dim>1</dim>
					<dim>1</dim>
				</port>
			</output>
		</layer>
		<layer id="108" name="2681268510188" type="Const" version="opset1">
			<data element_type="f16" offset="8126" shape="" size="2"/>
			<output>
				<port id="0" precision="FP16"/>
			</output>
		</layer>
		<layer id="109" name="2682268610662" type="Const" version="opset1">
			<data element_type="f16" offset="8128" shape="" size="2"/>
			<output>
				<port id="0" precision="FP16"/>
			</output>
		</layer>
		<layer id="110" name="268326879780" type="Const" version="opset1">
			<data element_type="f16" offset="8126" shape="" size="2"/>
			<output>
				<port id="0" precision="FP16"/>
			</output>
		</layer>
		<layer id="111" name="2684268810812" type="Const" version="opset1">
			<data element_type="f16" offset="8128" shape="" size="2"/>
			<output>
				<port id="0" precision="FP16"/>
			</output>
		</layer>
		<layer id="112" name="254125459360" type="Const" version="opset1">
			<data element_type="f16" offset="8130" shape="" size="2"/>
			<output>
				<port id="0" precision="FP16"/>
			</output>
		</layer>
		<layer id="113" name="2542254610515" type="Const" version="opset1">
			<data element_type="f16" offset="8132" shape="" size="2"/>
			<output>
				<port id="0" precision="FP16"/>
			</output>
		</layer>
		<layer id="114" name="254325479546" type="Const" version="opset1">
			<data element_type="f16" offset="8130" shape="" size="2"/>
			<output>
				<port id="0" precision="FP16"/>
			</output>
		</layer>
		<layer id="115" name="2544254810398" type="Const" version="opset1">
			<data element_type="f16" offset="8132" shape="" size="2"/>
			<output>
				<port id="0" precision="FP16"/>
			</output>
		</layer>
		<layer id="116" name="1301130510659" type="Const" version="opset1">
			<data element_type="f16" offset="0" shape="" size="2"/>
			<output>
				<port id="0" precision="FP16"/>
			</output>
		</layer>
		<layer id="117" name="130213069600" type="Const" version="opset1">
			<data element_type="f16" offset="8134" shape="" size="2"/>
			<output>
				<port id="0" precision="FP16"/>
			</output>
		</layer>
		<layer id="118" name="1303130710371" type="Const" version="opset1">
			<data element_type="f16" offset="0" shape="" size="2"/>
			<output>
				<port id="0" precision="FP16"/>
			</output>
		</layer>
		<layer id="119" name="1304130810479" type="Const" version="opset1">
			<data element_type="f16" offset="8134" shape="" size="2"/>
			<output>
				<port id="0" precision="FP16"/>
			</output>
		</layer>
		<layer id="120" name="2181218510653" type="Const" version="opset1">
			<data element_type="f16" offset="7358" shape="1,192,1,1" size="384"/>
			<output>
				<port id="0" precision="FP16">
					<dim>1</dim>
					<dim>192</dim>
					<dim>1</dim>
					<dim>1</dim>
				</port>
			</output>
		</layer>
		<layer id="121" name="2182218610641" type="Const" version="opset1">
			<data element_type="f16" offset="8136" shape="1,192,1,1" size="384"/>
			<output>
				<port id="0" precision="FP16">
					<dim>1</dim>
					<dim>192</dim>
					<dim>1</dim>
					<dim>1</dim>
				</port>
			</output>
		</layer>
		<layer id="122" name="2183218710170" type="Const" version="opset1">
			<data element_type="f16" offset="7358" shape="1,192,1,1" size="384"/>
			<output>
				<port id="0" precision="FP16">
					<dim>1</dim>
					<dim>192</dim>
					<dim>1</dim>
					<dim>1</dim>
				</port>
			</output>
		</layer>
		<layer id="123" name="2184218810521" type="Const" version="opset1">
			<data element_type="f16" offset="8136" shape="1,192,1,1" size="384"/>
			<output>
				<port id="0" precision="FP16">
					<dim>1</dim>
					<dim>192</dim>
					<dim>1</dim>
					<dim>1</dim>
				</port>
			</output>
		</layer>
		<layer id="124" name="2551255510281" type="Const" version="opset1">
			<data element_type="f16" offset="8520" shape="" size="2"/>
			<output>
				<port id="0" precision="FP16"/>
			</output>
		</layer>
		<layer id="125" name="2552255610275" type="Const" version="opset1">
			<data element_type="f16" offset="8522" shape="" size="2"/>
			<output>
				<port id="0" precision="FP16"/>
			</output>
		</layer>
		<layer id="126" name="255325579369" type="Const" version="opset1">
			<data element_type="f16" offset="8520" shape="" size="2"/>
			<output>
				<port id="0" precision="FP16"/>
			</output>
		</layer>
		<layer id="127" name="2554255810563" type="Const" version="opset1">
			<data element_type="f16" offset="8522" shape="" size="2"/>
			<output>
				<port id="0" precision="FP16"/>
			</output>
		</layer>
		<layer id="128" name="2361236510986" type="Const" version="opset1">
			<data element_type="f16" offset="8524" shape="" size="2"/>
			<output>
				<port id="0" precision="FP16"/>
			</output>
		</layer>
		<layer id="129" name="2362236610089" type="Const" version="opset1">
			<data element_type="f16" offset="8526" shape="" size="2"/>
			<output>
				<port id="0" precision="FP16"/>
			</output>
		</layer>
		<layer id="130" name="236323679405" type="Const" version="opset1">
			<data element_type="f16" offset="8524" shape="" size="2"/>
			<output>
				<port id="0" precision="FP16"/>
			</output>
		</layer>
		<layer id="131" name="236423689708" type="Const" version="opset1">
			<data element_type="f16" offset="8526" shape="" size="2"/>
			<output>
				<port id="0" precision="FP16"/>
			</output>
		</layer>
		<layer id="132" name="246124659588" type="Const" version="opset1">
			<data element_type="f16" offset="0" shape="" size="2"/>
			<output>
				<port id="0" precision="FP16"/>
			</output>
		</layer>
		<layer id="133" name="2462246611058" type="Const" version="opset1">
			<data element_type="f16" offset="8528" shape="" size="2"/>
			<output>
				<port id="0" precision="FP16"/>
			</output>
		</layer>
		<layer id="134" name="246324679891" type="Const" version="opset1">
			<data element_type="f16" offset="0" shape="" size="2"/>
			<output>
				<port id="0" precision="FP16"/>
			</output>
		</layer>
		<layer id="135" name="2464246810212" type="Const" version="opset1">
			<data element_type="f16" offset="8528" shape="" size="2"/>
			<output>
				<port id="0" precision="FP16"/>
			</output>
		</layer>
		<layer id="136" name="1361136510260" type="Const" version="opset1">
			<data element_type="f16" offset="7358" shape="1,192,1,1" size="384"/>
			<output>
				<port id="0" precision="FP16">
					<dim>1</dim>
					<dim>192</dim>
					<dim>1</dim>
					<dim>1</dim>
				</port>
			</output>
		</layer>
		<layer id="137" name="1362136611013" type="Const" version="opset1">
			<data element_type="f16" offset="8530" shape="1,192,1,1" size="384"/>
			<output>
				<port id="0" precision="FP16">
					<dim>1</dim>
					<dim>192</dim>
					<dim>1</dim>
					<dim>1</dim>
				</port>
			</output>
		</layer>
		<layer id="138" name="136313679504" type="Const" version="opset1">
			<data element_type="f16" offset="7358" shape="1,192,1,1" size="384"/>
			<output>
				<port id="0" precision="FP16">
					<dim>1</dim>
					<dim>192</dim>
					<dim>1</dim>
					<dim>1</dim>
				</port>
			</output>
		</layer>
		<layer id="139" name="1364136810272" type="Const" version="opset1">
			<data element_type="f16" offset="8530" shape="1,192,1,1" size="384"/>
			<output>
				<port id="0" precision="FP16">
					<dim>1</dim>
					<dim>192</dim>
					<dim>1</dim>
					<dim>1</dim>
				</port>
			</output>
		</layer>
		<layer id="140" name="2371237510524" type="Const" version="opset1">
			<data element_type="f16" offset="8914" shape="" size="2"/>
			<output>
				<port id="0" precision="FP16"/>
			</output>
		</layer>
		<layer id="141" name="2372237610767" type="Const" version="opset1">
			<data element_type="f16" offset="8916" shape="" size="2"/>
			<output>
				<port id="0" precision="FP16"/>
			</output>
		</layer>
		<layer id="142" name="2373237710005" type="Const" version="opset1">
			<data element_type="f16" offset="8914" shape="" size="2"/>
			<output>
				<port id="0" precision="FP16"/>
			</output>
		</layer>
		<layer id="143" name="237423789954" type="Const" version="opset1">
			<data element_type="f16" offset="8916" shape="" size="2"/>
			<output>
				<port id="0" precision="FP16"/>
			</output>
		</layer>
		<layer id="144" name="1841184510758" type="Const" version="opset1">
			<data element_type="f16" offset="0" shape="" size="2"/>
			<output>
				<port id="0" precision="FP16"/>
			</output>
		</layer>
		<layer id="145" name="184218469801" type="Const" version="opset1">
			<data element_type="f16" offset="8918" shape="" size="2"/>
			<output>
				<port id="0" precision="FP16"/>
			</output>
		</layer>
		<layer id="146" name="1843184710569" type="Const" version="opset1">
			<data element_type="f16" offset="0" shape="" size="2"/>
			<output>
				<port id="0" precision="FP16"/>
			</output>
		</layer>
		<layer id="147" name="1844184810698" type="Const" version="opset1">
			<data element_type="f16" offset="8918" shape="" size="2"/>
			<output>
				<port id="0" precision="FP16"/>
			</output>
		</layer>
		<layer id="148" name="252125259693" type="Const" version="opset1">
			<data element_type="f16" offset="8920" shape="1,144,1,1" size="288"/>
			<output>
				<port id="0" precision="FP16">
					<dim>1</dim>
					<dim>144</dim>
					<dim>1</dim>
					<dim>1</dim>
				</port>
			</output>
		</layer>
		<layer id="149" name="2522252610848" type="Const" version="opset1">
			<data element_type="f16" offset="9208" shape="1,144,1,1" size="288"/>
			<output>
				<port id="0" precision="FP16">
					<dim>1</dim>
					<dim>144</dim>
					<dim>1</dim>
					<dim>1</dim>
				</port>
			</output>
		</layer>
		<layer id="150" name="2523252710707" type="Const" version="opset1">
			<data element_type="f16" offset="8920" shape="1,144,1,1" size="288"/>
			<output>
				<port id="0" precision="FP16">
					<dim>1</dim>
					<dim>144</dim>
					<dim>1</dim>
					<dim>1</dim>
				</port>
			</output>
		</layer>
		<layer id="151" name="2524252810383" type="Const" version="opset1">
			<data element_type="f16" offset="9208" shape="1,144,1,1" size="288"/>
			<output>
				<port id="0" precision="FP16">
					<dim>1</dim>
					<dim>144</dim>
					<dim>1</dim>
					<dim>1</dim>
				</port>
			</output>
		</layer>
		<layer id="152" name="2021202510851" type="Const" version="opset1">
			<data element_type="f16" offset="9496" shape="" size="2"/>
			<output>
				<port id="0" precision="FP16"/>
			</output>
		</layer>
		<layer id="153" name="202220269630" type="Const" version="opset1">
			<data element_type="f16" offset="9498" shape="" size="2"/>
			<output>
				<port id="0" precision="FP16"/>
			</output>
		</layer>
		<layer id="154" name="2023202710713" type="Const" version="opset1">
			<data element_type="f16" offset="9496" shape="" size="2"/>
			<output>
				<port id="0" precision="FP16"/>
			</output>
		</layer>
		<layer id="155" name="2024202810128" type="Const" version="opset1">
			<data element_type="f16" offset="9498" shape="" size="2"/>
			<output>
				<port id="0" precision="FP16"/>
			</output>
		</layer>
		<layer id="156" name="170117059462" type="Const" version="opset1">
			<data element_type="f16" offset="9500" shape="" size="2"/>
			<output>
				<port id="0" precision="FP16"/>
			</output>
		</layer>
		<layer id="157" name="1702170610044" type="Const" version="opset1">
			<data element_type="f16" offset="9502" shape="" size="2"/>
			<output>
				<port id="0" precision="FP16"/>
			</output>
		</layer>
		<layer id="158" name="1703170710431" type="Const" version="opset1">
			<data element_type="f16" offset="9500" shape="" size="2"/>
			<output>
				<port id="0" precision="FP16"/>
			</output>
		</layer>
		<layer id="159" name="1704170810152" type="Const" version="opset1">
			<data element_type="f16" offset="9502" shape="" size="2"/>
			<output>
				<port id="0" precision="FP16"/>
			</output>
		</layer>
		<layer id="160" name="230123059372" type="Const" version="opset1">
			<data element_type="f16" offset="0" shape="" size="2"/>
			<output>
				<port id="0" precision="FP16"/>
			</output>
		</layer>
		<layer id="161" name="230223069420" type="Const" version="opset1">
			<data element_type="f16" offset="9504" shape="" size="2"/>
			<output>
				<port id="0" precision="FP16"/>
			</output>
		</layer>
		<layer id="162" name="2303230710791" type="Const" version="opset1">
			<data element_type="f16" offset="0" shape="" size="2"/>
			<output>
				<port id="0" precision="FP16"/>
			</output>
		</layer>
		<layer id="163" name="230423089396" type="Const" version="opset1">
			<data element_type="f16" offset="9504" shape="" size="2"/>
			<output>
				<port id="0" precision="FP16"/>
			</output>
		</layer>
		<layer id="164" name="192119259603" type="Const" version="opset1">
			<data element_type="f16" offset="8920" shape="1,144,1,1" size="288"/>
			<output>
				<port id="0" precision="FP16">
					<dim>1</dim>
					<dim>144</dim>
					<dim>1</dim>
					<dim>1</dim>
				</port>
			</output>
		</layer>
		<layer id="165" name="192219269759" type="Const" version="opset1">
			<data element_type="f16" offset="9506" shape="1,144,1,1" size="288"/>
			<output>
				<port id="0" precision="FP16">
					<dim>1</dim>
					<dim>144</dim>
					<dim>1</dim>
					<dim>1</dim>
				</port>
			</output>
		</layer>
		<layer id="166" name="1923192711031" type="Const" version="opset1">
			<data element_type="f16" offset="8920" shape="1,144,1,1" size="288"/>
			<output>
				<port id="0" precision="FP16">
					<dim>1</dim>
					<dim>144</dim>
					<dim>1</dim>
					<dim>1</dim>
				</port>
			</output>
		</layer>
		<layer id="167" name="1924192810632" type="Const" version="opset1">
			<data element_type="f16" offset="9506" shape="1,144,1,1" size="288"/>
			<output>
				<port id="0" precision="FP16">
					<dim>1</dim>
					<dim>144</dim>
					<dim>1</dim>
					<dim>1</dim>
				</port>
			</output>
		</layer>
		<layer id="168" name="1711171510320" type="Const" version="opset1">
			<data element_type="f16" offset="9794" shape="" size="2"/>
			<output>
				<port id="0" precision="FP16"/>
			</output>
		</layer>
		<layer id="169" name="171217169966" type="Const" version="opset1">
			<data element_type="f16" offset="9796" shape="" size="2"/>
			<output>
				<port id="0" precision="FP16"/>
			</output>
		</layer>
		<layer id="170" name="1713171711055" type="Const" version="opset1">
			<data element_type="f16" offset="9794" shape="" size="2"/>
			<output>
				<port id="0" precision="FP16"/>
			</output>
		</layer>
		<layer id="171" name="171417189429" type="Const" version="opset1">
			<data element_type="f16" offset="9796" shape="" size="2"/>
			<output>
				<port id="0" precision="FP16"/>
			</output>
		</layer>
		<layer id="172" name="140114059744" type="Const" version="opset1">
			<data element_type="f16" offset="0" shape="" size="2"/>
			<output>
				<port id="0" precision="FP16"/>
			</output>
		</layer>
		<layer id="173" name="140214069483" type="Const" version="opset1">
			<data element_type="f16" offset="9798" shape="" size="2"/>
			<output>
				<port id="0" precision="FP16"/>
			</output>
		</layer>
		<layer id="174" name="1403140710107" type="Const" version="opset1">
			<data element_type="f16" offset="0" shape="" size="2"/>
			<output>
				<port id="0" precision="FP16"/>
			</output>
		</layer>
		<layer id="175" name="1404140810287" type="Const" version="opset1">
			<data element_type="f16" offset="9798" shape="" size="2"/>
			<output>
				<port id="0" precision="FP16"/>
			</output>
		</layer>
		<layer id="176" name="240124059795" type="Const" version="opset1">
			<data element_type="f16" offset="9800" shape="1,96,1,1" size="192"/>
			<output>
				<port id="0" precision="FP16">
					<dim>1</dim>
					<dim>96</dim>
					<dim>1</dim>
					<dim>1</dim>
				</port>
			</output>
		</layer>
		<layer id="177" name="2402240610878" type="Const" version="opset1">
			<data element_type="f16" offset="9992" shape="1,96,1,1" size="192"/>
			<output>
				<port id="0" precision="FP16">
					<dim>1</dim>
					<dim>96</dim>
					<dim>1</dim>
					<dim>1</dim>
				</port>
			</output>
		</layer>
		<layer id="178" name="240324079624" type="Const" version="opset1">
			<data element_type="f16" offset="9800" shape="1,96,1,1" size="192"/>
			<output>
				<port id="0" precision="FP16">
					<dim>1</dim>
					<dim>96</dim>
					<dim>1</dim>
					<dim>1</dim>
				</port>
			</output>
		</layer>
		<layer id="179" name="240424089723" type="Const" version="opset1">
			<data element_type="f16" offset="9992" shape="1,96,1,1" size="192"/>
			<output>
				<port id="0" precision="FP16">
					<dim>1</dim>
					<dim>96</dim>
					<dim>1</dim>
					<dim>1</dim>
				</port>
			</output>
		</layer>
		<layer id="180" name="1501150511016" type="Const" version="opset1">
			<data element_type="f16" offset="10184" shape="" size="2"/>
			<output>
				<port id="0" precision="FP16"/>
			</output>
		</layer>
		<layer id="181" name="1502150610881" type="Const" version="opset1">
			<data element_type="f16" offset="10186" shape="" size="2"/>
			<output>
				<port id="0" precision="FP16"/>
			</output>
		</layer>
		<layer id="182" name="1503150710095" type="Const" version="opset1">
			<data element_type="f16" offset="10184" shape="" size="2"/>
			<output>
				<port id="0" precision="FP16"/>
			</output>
		</layer>
		<layer id="183" name="150415089924" type="Const" version="opset1">
			<data element_type="f16" offset="10186" shape="" size="2"/>
			<output>
				<port id="0" precision="FP16"/>
			</output>
		</layer>
		<layer id="184" name="2241224510335" type="Const" version="opset1">
			<data element_type="f16" offset="0" shape="" size="2"/>
			<output>
				<port id="0" precision="FP16"/>
			</output>
		</layer>
		<layer id="185" name="224222469870" type="Const" version="opset1">
			<data element_type="f16" offset="10188" shape="" size="2"/>
			<output>
				<port id="0" precision="FP16"/>
			</output>
		</layer>
		<layer id="186" name="2243224710059" type="Const" version="opset1">
			<data element_type="f16" offset="0" shape="" size="2"/>
			<output>
				<port id="0" precision="FP16"/>
			</output>
		</layer>
		<layer id="187" name="2244224810407" type="Const" version="opset1">
			<data element_type="f16" offset="10188" shape="" size="2"/>
			<output>
				<port id="0" precision="FP16"/>
			</output>
		</layer>
		<layer id="188" name="258125859447" type="Const" version="opset1">
			<data element_type="f16" offset="10190" shape="1,32,1,1" size="64"/>
			<output>
				<port id="0" precision="FP16">
					<dim>1</dim>
					<dim>32</dim>
					<dim>1</dim>
					<dim>1</dim>
				</port>
			</output>
		</layer>
		<layer id="189" name="258225869726" type="Const" version="opset1">
			<data element_type="f16" offset="10254" shape="1,32,1,1" size="64"/>
			<output>
				<port id="0" precision="FP16">
					<dim>1</dim>
					<dim>32</dim>
					<dim>1</dim>
					<dim>1</dim>
				</port>
			</output>
		</layer>
		<layer id="190" name="258325879573" type="Const" version="opset1">
			<data element_type="f16" offset="10190" shape="1,32,1,1" size="64"/>
			<output>
				<port id="0" precision="FP16">
					<dim>1</dim>
					<dim>32</dim>
					<dim>1</dim>
					<dim>1</dim>
				</port>
			</output>
		</layer>
		<layer id="191" name="2584258810557" type="Const" version="opset1">
			<data element_type="f16" offset="10254" shape="1,32,1,1" size="64"/>
			<output>
				<port id="0" precision="FP16">
					<dim>1</dim>
					<dim>32</dim>
					<dim>1</dim>
					<dim>1</dim>
				</port>
			</output>
		</layer>
		<layer id="192" name="1741174510761" type="Const" version="opset1">
			<data element_type="f16" offset="0" shape="" size="2"/>
			<output>
				<port id="0" precision="FP16"/>
			</output>
		</layer>
		<layer id="193" name="174217469750" type="Const" version="opset1">
			<data element_type="f16" offset="10318" shape="" size="2"/>
			<output>
				<port id="0" precision="FP16"/>
			</output>
		</layer>
		<layer id="194" name="174317479903" type="Const" version="opset1">
			<data element_type="f16" offset="0" shape="" size="2"/>
			<output>
				<port id="0" precision="FP16"/>
			</output>
		</layer>
		<layer id="195" name="1744174810119" type="Const" version="opset1">
			<data element_type="f16" offset="10318" shape="" size="2"/>
			<output>
				<port id="0" precision="FP16"/>
			</output>
		</layer>
		<layer id="196" name="1961196510740" type="Const" version="opset1">
			<data element_type="f16" offset="0" shape="" size="2"/>
			<output>
				<port id="0" precision="FP16"/>
			</output>
		</layer>
		<layer id="197" name="1962196610683" type="Const" version="opset1">
			<data element_type="f16" offset="10320" shape="" size="2"/>
			<output>
				<port id="0" precision="FP16"/>
			</output>
		</layer>
		<layer id="198" name="1963196710638" type="Const" version="opset1">
			<data element_type="f16" offset="0" shape="" size="2"/>
			<output>
				<port id="0" precision="FP16"/>
			</output>
		</layer>
		<layer id="199" name="196419689525" type="Const" version="opset1">
			<data element_type="f16" offset="10320" shape="" size="2"/>
			<output>
				<port id="0" precision="FP16"/>
			</output>
		</layer>
		<layer id="200" name="image" type="Parameter" version="opset1">
			<data element_type="f16" shape="1,3,256,256"/>
			<output>
				<port id="0" names="image" precision="FP16">
					<dim>1</dim>
					<dim>3</dim>
					<dim>256</dim>
					<dim>256</dim>
				</port>
			</output>
		</layer>
		<layer id="201" name="image/scale_input_port_1/value28532252240010305" type="Const" version="opset1">
			<data element_type="f16" offset="10322" shape="1,1,1,1" size="2"/>
			<output>
				<port id="0" precision="FP16">
					<dim>1</dim>
					<dim>1</dim>
					<dim>1</dim>
					<dim>1</dim>
				</port>
			</output>
		</layer>
		<layer id="202" name="image/scale" type="Multiply" version="opset1">
			<data auto_broadcast="numpy"/>
			<input>
				<port id="0">
					<dim>1</dim>
					<dim>3</dim>
					<dim>256</dim>
					<dim>256</dim>
				</port>
				<port id="1">
					<dim>1</dim>
					<dim>1</dim>
					<dim>1</dim>
					<dim>1</dim>
				</port>
			</input>
			<output>
				<port id="2" precision="FP16">
					<dim>1</dim>
					<dim>3</dim>
					<dim>256</dim>
					<dim>256</dim>
				</port>
			</output>
		</layer>
		<layer id="203" name="Conv_0/fq_input_0" type="FakeQuantize" version="opset1">
			<data auto_broadcast="numpy" levels="256"/>
			<input>
				<port id="0">
					<dim>1</dim>
					<dim>3</dim>
					<dim>256</dim>
					<dim>256</dim>
				</port>
				<port id="1"/>
				<port id="2"/>
				<port id="3"/>
				<port id="4"/>
			</input>
			<output>
				<port id="5" precision="FP16">
					<dim>1</dim>
					<dim>3</dim>
					<dim>256</dim>
					<dim>256</dim>
				</port>
			</output>
		</layer>
		<layer id="204" name="BatchNormalization_1/mean/Fused_Mul__copy4024833/quantized65719993" type="Const" version="opset1">
			<data element_type="i8" offset="10324" shape="32,3,3,3" size="864"/>
			<output>
				<port id="0" precision="I8">
					<dim>32</dim>
					<dim>3</dim>
					<dim>3</dim>
					<dim>3</dim>
				</port>
			</output>
		</layer>
		<layer id="205" name="BatchNormalization_1/mean/Fused_Mul__copy4024833/quantized/to_f16" type="Convert" version="opset1">
			<data destination_type="f16"/>
			<input>
				<port id="0">
					<dim>32</dim>
					<dim>3</dim>
					<dim>3</dim>
					<dim>3</dim>
				</port>
			</input>
			<output>
				<port id="1" precision="FP16">
					<dim>32</dim>
					<dim>3</dim>
					<dim>3</dim>
					<dim>3</dim>
				</port>
			</output>
		</layer>
		<layer id="206" name="Conv_0/fq_weights_1/zero_point658410797" type="Const" version="opset1">
			<data element_type="f16" offset="11188" shape="32,1,1,1" size="64"/>
			<output>
				<port id="0" precision="FP16">
					<dim>32</dim>
					<dim>1</dim>
					<dim>1</dim>
					<dim>1</dim>
				</port>
			</output>
		</layer>
		<layer id="207" name="Conv_0/fq_weights_1/minus_zp" type="Subtract" version="opset1">
			<data auto_broadcast="numpy"/>
			<input>
				<port id="0">
					<dim>32</dim>
					<dim>3</dim>
					<dim>3</dim>
					<dim>3</dim>
				</port>
				<port id="1">
					<dim>32</dim>
					<dim>1</dim>
					<dim>1</dim>
					<dim>1</dim>
				</port>
			</input>
			<output>
				<port id="2" precision="FP16">
					<dim>32</dim>
					<dim>3</dim>
					<dim>3</dim>
					<dim>3</dim>
				</port>
			</output>
		</layer>
		<layer id="208" name="Conv_0/fq_weights_1/scale65799831" type="Const" version="opset1">
			<data element_type="f16" offset="11252" shape="32,1,1,1" size="64"/>
			<output>
				<port id="0" precision="FP16">
					<dim>32</dim>
					<dim>1</dim>
					<dim>1</dim>
					<dim>1</dim>
				</port>
			</output>
		</layer>
		<layer id="209" name="Conv_0/fq_weights_1/mulpiply_by_scale" type="Multiply" version="opset1">
			<data auto_broadcast="numpy"/>
			<input>
				<port id="0">
					<dim>32</dim>
					<dim>3</dim>
					<dim>3</dim>
					<dim>3</dim>
				</port>
				<port id="1">
					<dim>32</dim>
					<dim>1</dim>
					<dim>1</dim>
					<dim>1</dim>
				</port>
			</input>
			<output>
				<port id="2" precision="FP16">
					<dim>32</dim>
					<dim>3</dim>
					<dim>3</dim>
					<dim>3</dim>
				</port>
			</output>
		</layer>
		<layer id="210" name="Conv_0" type="Convolution" version="opset1">
			<data auto_pad="explicit" dilations="1,1" pads_begin="1,1" pads_end="1,1" strides="2,2"/>
			<input>
				<port id="0">
					<dim>1</dim>
					<dim>3</dim>
					<dim>256</dim>
					<dim>256</dim>
				</port>
				<port id="1">
					<dim>32</dim>
					<dim>3</dim>
					<dim>3</dim>
					<dim>3</dim>
				</port>
			</input>
			<output>
				<port id="2" precision="FP16">
					<dim>1</dim>
					<dim>32</dim>
					<dim>128</dim>
					<dim>128</dim>
				</port>
			</output>
		</layer>
		<layer id="211" name="data_add_118974049582" type="Const" version="opset1">
			<data element_type="f16" offset="11316" shape="1,32,1,1" size="64"/>
			<output>
				<port id="0" precision="FP16">
					<dim>1</dim>
					<dim>32</dim>
					<dim>1</dim>
					<dim>1</dim>
				</port>
			</output>
		</layer>
		<layer id="212" name="BatchNormalization_1/variance/Fused_Add_" type="Add" version="opset1">
			<data auto_broadcast="numpy"/>
			<input>
				<port id="0">
					<dim>1</dim>
					<dim>32</dim>
					<dim>128</dim>
					<dim>128</dim>
				</port>
				<port id="1">
					<dim>1</dim>
					<dim>32</dim>
					<dim>1</dim>
					<dim>1</dim>
				</port>
			</input>
			<output>
				<port id="2" names="351" precision="FP16">
					<dim>1</dim>
					<dim>32</dim>
					<dim>128</dim>
					<dim>128</dim>
				</port>
			</output>
		</layer>
		<layer id="213" name="Clip_2" type="Clamp" version="opset1">
			<data max="6" min="0"/>
			<input>
				<port id="0">
					<dim>1</dim>
					<dim>32</dim>
					<dim>128</dim>
					<dim>128</dim>
				</port>
			</input>
			<output>
				<port id="1" names="352" precision="FP16">
					<dim>1</dim>
					<dim>32</dim>
					<dim>128</dim>
					<dim>128</dim>
				</port>
			</output>
		</layer>
		<layer id="214" name="Conv_3/fq_input_0" type="FakeQuantize" version="opset1">
			<data auto_broadcast="numpy" levels="256"/>
			<input>
				<port id="0">
					<dim>1</dim>
					<dim>32</dim>
					<dim>128</dim>
					<dim>128</dim>
				</port>
				<port id="1"/>
				<port id="2"/>
				<port id="3"/>
				<port id="4"/>
			</input>
			<output>
				<port id="5" precision="FP16">
					<dim>1</dim>
					<dim>32</dim>
					<dim>128</dim>
					<dim>128</dim>
				</port>
			</output>
		</layer>
		<layer id="215" name="BatchNormalization_4/mean/Fused_Mul__copy4074835/quantized628310308" type="Const" version="opset1">
			<data element_type="i8" offset="11380" shape="32,32,1,1" size="1024"/>
			<output>
				<port id="0" precision="I8">
					<dim>32</dim>
					<dim>32</dim>
					<dim>1</dim>
					<dim>1</dim>
				</port>
			</output>
		</layer>
		<layer id="216" name="BatchNormalization_4/mean/Fused_Mul__copy4074835/quantized/to_f16" type="Convert" version="opset1">
			<data destination_type="f16"/>
			<input>
				<port id="0">
					<dim>32</dim>
					<dim>32</dim>
					<dim>1</dim>
					<dim>1</dim>
				</port>
			</input>
			<output>
				<port id="1" precision="FP16">
					<dim>32</dim>
					<dim>32</dim>
					<dim>1</dim>
					<dim>1</dim>
				</port>
			</output>
		</layer>
		<layer id="217" name="Conv_3/fq_weights_1/zero_point629610017" type="Const" version="opset1">
			<data element_type="f16" offset="12404" shape="32,1,1,1" size="64"/>
			<output>
				<port id="0" precision="FP16">
					<dim>32</dim>
					<dim>1</dim>
					<dim>1</dim>
					<dim>1</dim>
				</port>
			</output>
		</layer>
		<layer id="218" name="Conv_3/fq_weights_1/minus_zp" type="Subtract" version="opset1">
			<data auto_broadcast="numpy"/>
			<input>
				<port id="0">
					<dim>32</dim>
					<dim>32</dim>
					<dim>1</dim>
					<dim>1</dim>
				</port>
				<port id="1">
					<dim>32</dim>
					<dim>1</dim>
					<dim>1</dim>
					<dim>1</dim>
				</port>
			</input>
			<output>
				<port id="2" precision="FP16">
					<dim>32</dim>
					<dim>32</dim>
					<dim>1</dim>
					<dim>1</dim>
				</port>
			</output>
		</layer>
		<layer id="219" name="Conv_3/fq_weights_1/scale62919522" type="Const" version="opset1">
			<data element_type="f16" offset="12468" shape="32,1,1,1" size="64"/>
			<output>
				<port id="0" precision="FP16">
					<dim>32</dim>
					<dim>1</dim>
					<dim>1</dim>
					<dim>1</dim>
				</port>
			</output>
		</layer>
		<layer id="220" name="Conv_3/fq_weights_1/mulpiply_by_scale" type="Multiply" version="opset1">
			<data auto_broadcast="numpy"/>
			<input>
				<port id="0">
					<dim>32</dim>
					<dim>32</dim>
					<dim>1</dim>
					<dim>1</dim>
				</port>
				<port id="1">
					<dim>32</dim>
					<dim>1</dim>
					<dim>1</dim>
					<dim>1</dim>
				</port>
			</input>
			<output>
				<port id="2" precision="FP16">
					<dim>32</dim>
					<dim>32</dim>
					<dim>1</dim>
					<dim>1</dim>
				</port>
			</output>
		</layer>
		<layer id="221" name="Conv_3" type="Convolution" version="opset1">
			<data auto_pad="explicit" dilations="1,1" pads_begin="0,0" pads_end="0,0" strides="1,1"/>
			<input>
				<port id="0">
					<dim>1</dim>
					<dim>32</dim>
					<dim>128</dim>
					<dim>128</dim>
				</port>
				<port id="1">
					<dim>32</dim>
					<dim>32</dim>
					<dim>1</dim>
					<dim>1</dim>
				</port>
			</input>
			<output>
				<port id="2" precision="FP16">
					<dim>1</dim>
					<dim>32</dim>
					<dim>128</dim>
					<dim>128</dim>
				</port>
			</output>
		</layer>
		<layer id="222" name="data_add_119001190540911046" type="Const" version="opset1">
			<data element_type="f16" offset="12532" shape="1,32,1,1" size="64"/>
			<output>
				<port id="0" precision="FP16">
					<dim>1</dim>
					<dim>32</dim>
					<dim>1</dim>
					<dim>1</dim>
				</port>
			</output>
		</layer>
		<layer id="223" name="BatchNormalization_4/variance/Fused_Add_" type="Add" version="opset1">
			<data auto_broadcast="numpy"/>
			<input>
				<port id="0">
					<dim>1</dim>
					<dim>32</dim>
					<dim>128</dim>
					<dim>128</dim>
				</port>
				<port id="1">
					<dim>1</dim>
					<dim>32</dim>
					<dim>1</dim>
					<dim>1</dim>
				</port>
			</input>
			<output>
				<port id="2" names="354" precision="FP16">
					<dim>1</dim>
					<dim>32</dim>
					<dim>128</dim>
					<dim>128</dim>
				</port>
			</output>
		</layer>
		<layer id="224" name="Clip_5" type="Clamp" version="opset1">
			<data max="6" min="0"/>
			<input>
				<port id="0">
					<dim>1</dim>
					<dim>32</dim>
					<dim>128</dim>
					<dim>128</dim>
				</port>
			</input>
			<output>
				<port id="1" names="355" precision="FP16">
					<dim>1</dim>
					<dim>32</dim>
					<dim>128</dim>
					<dim>128</dim>
				</port>
			</output>
		</layer>
		<layer id="225" name="Conv_6/fq_input_0" type="FakeQuantize" version="opset1">
			<data auto_broadcast="numpy" levels="256"/>
			<input>
				<port id="0">
					<dim>1</dim>
					<dim>32</dim>
					<dim>128</dim>
					<dim>128</dim>
				</port>
				<port id="1">
					<dim>1</dim>
					<dim>32</dim>
					<dim>1</dim>
					<dim>1</dim>
				</port>
				<port id="2">
					<dim>1</dim>
					<dim>32</dim>
					<dim>1</dim>
					<dim>1</dim>
				</port>
				<port id="3">
					<dim>1</dim>
					<dim>32</dim>
					<dim>1</dim>
					<dim>1</dim>
				</port>
				<port id="4">
					<dim>1</dim>
					<dim>32</dim>
					<dim>1</dim>
					<dim>1</dim>
				</port>
			</input>
			<output>
				<port id="5" precision="FP16">
					<dim>1</dim>
					<dim>32</dim>
					<dim>128</dim>
					<dim>128</dim>
				</port>
			</output>
		</layer>
		<layer id="226" name="8202/value820410290" type="Const" version="opset1">
			<data element_type="i64" offset="12596" shape="5" size="40"/>
			<output>
				<port id="0" precision="I64">
					<dim>5</dim>
				</port>
			</output>
		</layer>
		<layer id="227" name="BatchNormalization_7/mean/Fused_Mul__copy4124837/quantized604310227" type="Const" version="opset1">
			<data element_type="i8" offset="12636" shape="32,1,3,3" size="288"/>
			<output>
				<port id="0" precision="I8">
					<dim>32</dim>
					<dim>1</dim>
					<dim>3</dim>
					<dim>3</dim>
				</port>
			</output>
		</layer>
		<layer id="228" name="BatchNormalization_7/mean/Fused_Mul__copy4124837/quantized/to_f16" type="Convert" version="opset1">
			<data destination_type="f16"/>
			<input>
				<port id="0">
					<dim>32</dim>
					<dim>1</dim>
					<dim>3</dim>
					<dim>3</dim>
				</port>
			</input>
			<output>
				<port id="1" precision="FP16">
					<dim>32</dim>
					<dim>1</dim>
					<dim>3</dim>
					<dim>3</dim>
				</port>
			</output>
		</layer>
		<layer id="229" name="Conv_6/fq_weights_1/zero_point605610845" type="Const" version="opset1">
			<data element_type="f16" offset="12924" shape="32,1,1,1" size="64"/>
			<output>
				<port id="0" precision="FP16">
					<dim>32</dim>
					<dim>1</dim>
					<dim>1</dim>
					<dim>1</dim>
				</port>
			</output>
		</layer>
		<layer id="230" name="Conv_6/fq_weights_1/minus_zp" type="Subtract" version="opset1">
			<data auto_broadcast="numpy"/>
			<input>
				<port id="0">
					<dim>32</dim>
					<dim>1</dim>
					<dim>3</dim>
					<dim>3</dim>
				</port>
				<port id="1">
					<dim>32</dim>
					<dim>1</dim>
					<dim>1</dim>
					<dim>1</dim>
				</port>
			</input>
			<output>
				<port id="2" precision="FP16">
					<dim>32</dim>
					<dim>1</dim>
					<dim>3</dim>
					<dim>3</dim>
				</port>
			</output>
		</layer>
		<layer id="231" name="Conv_6/fq_weights_1/scale60519771" type="Const" version="opset1">
			<data element_type="f16" offset="12988" shape="32,1,1,1" size="64"/>
			<output>
				<port id="0" precision="FP16">
					<dim>32</dim>
					<dim>1</dim>
					<dim>1</dim>
					<dim>1</dim>
				</port>
			</output>
		</layer>
		<layer id="232" name="Conv_6/fq_weights_1/mulpiply_by_scale" type="Multiply" version="opset1">
			<data auto_broadcast="numpy"/>
			<input>
				<port id="0">
					<dim>32</dim>
					<dim>1</dim>
					<dim>3</dim>
					<dim>3</dim>
				</port>
				<port id="1">
					<dim>32</dim>
					<dim>1</dim>
					<dim>1</dim>
					<dim>1</dim>
				</port>
			</input>
			<output>
				<port id="2" precision="FP16">
					<dim>32</dim>
					<dim>1</dim>
					<dim>3</dim>
					<dim>3</dim>
				</port>
			</output>
		</layer>
		<layer id="233" name="8202" type="Reshape" version="opset1">
			<data special_zero="true"/>
			<input>
				<port id="0">
					<dim>32</dim>
					<dim>1</dim>
					<dim>3</dim>
					<dim>3</dim>
				</port>
				<port id="1">
					<dim>5</dim>
				</port>
			</input>
			<output>
				<port id="2" precision="FP16">
					<dim>32</dim>
					<dim>1</dim>
					<dim>1</dim>
					<dim>3</dim>
					<dim>3</dim>
				</port>
			</output>
		</layer>
		<layer id="234" name="Conv_6" type="GroupConvolution" version="opset1">
			<data auto_pad="explicit" dilations="1,1" pads_begin="1,1" pads_end="1,1" strides="1,1"/>
			<input>
				<port id="0">
					<dim>1</dim>
					<dim>32</dim>
					<dim>128</dim>
					<dim>128</dim>
				</port>
				<port id="1">
					<dim>32</dim>
					<dim>1</dim>
					<dim>1</dim>
					<dim>3</dim>
					<dim>3</dim>
				</port>
			</input>
			<output>
				<port id="2" precision="FP16">
					<dim>1</dim>
					<dim>32</dim>
					<dim>128</dim>
					<dim>128</dim>
				</port>
			</output>
		</layer>
		<layer id="235" name="data_add_119081191341410995" type="Const" version="opset1">
			<data element_type="f16" offset="13052" shape="1,32,1,1" size="64"/>
			<output>
				<port id="0" precision="FP16">
					<dim>1</dim>
					<dim>32</dim>
					<dim>1</dim>
					<dim>1</dim>
				</port>
			</output>
		</layer>
		<layer id="236" name="BatchNormalization_7/variance/Fused_Add_" type="Add" version="opset1">
			<data auto_broadcast="numpy"/>
			<input>
				<port id="0">
					<dim>1</dim>
					<dim>32</dim>
					<dim>128</dim>
					<dim>128</dim>
				</port>
				<port id="1">
					<dim>1</dim>
					<dim>32</dim>
					<dim>1</dim>
					<dim>1</dim>
				</port>
			</input>
			<output>
				<port id="2" names="357" precision="FP16">
					<dim>1</dim>
					<dim>32</dim>
					<dim>128</dim>
					<dim>128</dim>
				</port>
			</output>
		</layer>
		<layer id="237" name="Clip_8" type="Clamp" version="opset1">
			<data max="6" min="0"/>
			<input>
				<port id="0">
					<dim>1</dim>
					<dim>32</dim>
					<dim>128</dim>
					<dim>128</dim>
				</port>
			</input>
			<output>
				<port id="1" names="358" precision="FP16">
					<dim>1</dim>
					<dim>32</dim>
					<dim>128</dim>
					<dim>128</dim>
				</port>
			</output>
		</layer>
		<layer id="238" name="Conv_9/fq_input_0" type="FakeQuantize" version="opset1">
			<data auto_broadcast="numpy" levels="256"/>
			<input>
				<port id="0">
					<dim>1</dim>
					<dim>32</dim>
					<dim>128</dim>
					<dim>128</dim>
				</port>
				<port id="1"/>
				<port id="2"/>
				<port id="3"/>
				<port id="4"/>
			</input>
			<output>
				<port id="5" precision="FP16">
					<dim>1</dim>
					<dim>32</dim>
					<dim>128</dim>
					<dim>128</dim>
				</port>
			</output>
		</layer>
		<layer id="239" name="BatchNormalization_10/mean/Fused_Mul__copy4174839/quantized654710800" type="Const" version="opset1">
			<data element_type="i8" offset="13116" shape="16,32,1,1" size="512"/>
			<output>
				<port id="0" precision="I8">
					<dim>16</dim>
					<dim>32</dim>
					<dim>1</dim>
					<dim>1</dim>
				</port>
			</output>
		</layer>
		<layer id="240" name="BatchNormalization_10/mean/Fused_Mul__copy4174839/quantized/to_f16" type="Convert" version="opset1">
			<data destination_type="f16"/>
			<input>
				<port id="0">
					<dim>16</dim>
					<dim>32</dim>
					<dim>1</dim>
					<dim>1</dim>
				</port>
			</input>
			<output>
				<port id="1" precision="FP16">
					<dim>16</dim>
					<dim>32</dim>
					<dim>1</dim>
					<dim>1</dim>
				</port>
			</output>
		</layer>
		<layer id="241" name="Conv_9/fq_weights_1/zero_point656011067" type="Const" version="opset1">
			<data element_type="f16" offset="13628" shape="16,1,1,1" size="32"/>
			<output>
				<port id="0" precision="FP16">
					<dim>16</dim>
					<dim>1</dim>
					<dim>1</dim>
					<dim>1</dim>
				</port>
			</output>
		</layer>
		<layer id="242" name="Conv_9/fq_weights_1/minus_zp" type="Subtract" version="opset1">
			<data auto_broadcast="numpy"/>
			<input>
				<port id="0">
					<dim>16</dim>
					<dim>32</dim>
					<dim>1</dim>
					<dim>1</dim>
				</port>
				<port id="1">
					<dim>16</dim>
					<dim>1</dim>
					<dim>1</dim>
					<dim>1</dim>
				</port>
			</input>
			<output>
				<port id="2" precision="FP16">
					<dim>16</dim>
					<dim>32</dim>
					<dim>1</dim>
					<dim>1</dim>
				</port>
			</output>
		</layer>
		<layer id="243" name="Conv_9/fq_weights_1/scale655510338" type="Const" version="opset1">
			<data element_type="f16" offset="13660" shape="16,1,1,1" size="32"/>
			<output>
				<port id="0" precision="FP16">
					<dim>16</dim>
					<dim>1</dim>
					<dim>1</dim>
					<dim>1</dim>
				</port>
			</output>
		</layer>
		<layer id="244" name="Conv_9/fq_weights_1/mulpiply_by_scale" type="Multiply" version="opset1">
			<data auto_broadcast="numpy"/>
			<input>
				<port id="0">
					<dim>16</dim>
					<dim>32</dim>
					<dim>1</dim>
					<dim>1</dim>
				</port>
				<port id="1">
					<dim>16</dim>
					<dim>1</dim>
					<dim>1</dim>
					<dim>1</dim>
				</port>
			</input>
			<output>
				<port id="2" precision="FP16">
					<dim>16</dim>
					<dim>32</dim>
					<dim>1</dim>
					<dim>1</dim>
				</port>
			</output>
		</layer>
		<layer id="245" name="Conv_9" type="Convolution" version="opset1">
			<data auto_pad="explicit" dilations="1,1" pads_begin="0,0" pads_end="0,0" strides="1,1"/>
			<input>
				<port id="0">
					<dim>1</dim>
					<dim>32</dim>
					<dim>128</dim>
					<dim>128</dim>
				</port>
				<port id="1">
					<dim>16</dim>
					<dim>32</dim>
					<dim>1</dim>
					<dim>1</dim>
				</port>
			</input>
			<output>
				<port id="2" precision="FP16">
					<dim>1</dim>
					<dim>16</dim>
					<dim>128</dim>
					<dim>128</dim>
				</port>
			</output>
		</layer>
		<layer id="246" name="data_add_11916119214199717" type="Const" version="opset1">
			<data element_type="f16" offset="13692" shape="1,16,1,1" size="32"/>
			<output>
				<port id="0" precision="FP16">
					<dim>1</dim>
					<dim>16</dim>
					<dim>1</dim>
					<dim>1</dim>
				</port>
			</output>
		</layer>
		<layer id="247" name="BatchNormalization_10/variance/Fused_Add_" type="Add" version="opset1">
			<data auto_broadcast="numpy"/>
			<input>
				<port id="0">
					<dim>1</dim>
					<dim>16</dim>
					<dim>128</dim>
					<dim>128</dim>
				</port>
				<port id="1">
					<dim>1</dim>
					<dim>16</dim>
					<dim>1</dim>
					<dim>1</dim>
				</port>
			</input>
			<output>
				<port id="2" names="360" precision="FP16">
					<dim>1</dim>
					<dim>16</dim>
					<dim>128</dim>
					<dim>128</dim>
				</port>
			</output>
		</layer>
		<layer id="248" name="Conv_11/fq_input_0" type="FakeQuantize" version="opset1">
			<data auto_broadcast="numpy" levels="256"/>
			<input>
				<port id="0">
					<dim>1</dim>
					<dim>16</dim>
					<dim>128</dim>
					<dim>128</dim>
				</port>
				<port id="1"/>
				<port id="2"/>
				<port id="3"/>
				<port id="4"/>
			</input>
			<output>
				<port id="5" precision="FP16">
					<dim>1</dim>
					<dim>16</dim>
					<dim>128</dim>
					<dim>128</dim>
				</port>
			</output>
		</layer>
		<layer id="249" name="BatchNormalization_12/mean/Fused_Mul__copy4214841/quantized55159402" type="Const" version="opset1">
			<data element_type="i8" offset="13724" shape="96,16,1,1" size="1536"/>
			<output>
				<port id="0" precision="I8">
					<dim>96</dim>
					<dim>16</dim>
					<dim>1</dim>
					<dim>1</dim>
				</port>
			</output>
		</layer>
		<layer id="250" name="BatchNormalization_12/mean/Fused_Mul__copy4214841/quantized/to_f16" type="Convert" version="opset1">
			<data destination_type="f16"/>
			<input>
				<port id="0">
					<dim>96</dim>
					<dim>16</dim>
					<dim>1</dim>
					<dim>1</dim>
				</port>
			</input>
			<output>
				<port id="1" precision="FP16">
					<dim>96</dim>
					<dim>16</dim>
					<dim>1</dim>
					<dim>1</dim>
				</port>
			</output>
		</layer>
		<layer id="251" name="Conv_11/fq_weights_1/zero_point55289435" type="Const" version="opset1">
			<data element_type="f16" offset="15260" shape="96,1,1,1" size="192"/>
			<output>
				<port id="0" precision="FP16">
					<dim>96</dim>
					<dim>1</dim>
					<dim>1</dim>
					<dim>1</dim>
				</port>
			</output>
		</layer>
		<layer id="252" name="Conv_11/fq_weights_1/minus_zp" type="Subtract" version="opset1">
			<data auto_broadcast="numpy"/>
			<input>
				<port id="0">
					<dim>96</dim>
					<dim>16</dim>
					<dim>1</dim>
					<dim>1</dim>
				</port>
				<port id="1">
					<dim>96</dim>
					<dim>1</dim>
					<dim>1</dim>
					<dim>1</dim>
				</port>
			</input>
			<output>
				<port id="2" precision="FP16">
					<dim>96</dim>
					<dim>16</dim>
					<dim>1</dim>
					<dim>1</dim>
				</port>
			</output>
		</layer>
		<layer id="253" name="Conv_11/fq_weights_1/scale55239822" type="Const" version="opset1">
			<data element_type="f16" offset="15452" shape="96,1,1,1" size="192"/>
			<output>
				<port id="0" precision="FP16">
					<dim>96</dim>
					<dim>1</dim>
					<dim>1</dim>
					<dim>1</dim>
				</port>
			</output>
		</layer>
		<layer id="254" name="Conv_11/fq_weights_1/mulpiply_by_scale" type="Multiply" version="opset1">
			<data auto_broadcast="numpy"/>
			<input>
				<port id="0">
					<dim>96</dim>
					<dim>16</dim>
					<dim>1</dim>
					<dim>1</dim>
				</port>
				<port id="1">
					<dim>96</dim>
					<dim>1</dim>
					<dim>1</dim>
					<dim>1</dim>
				</port>
			</input>
			<output>
				<port id="2" precision="FP16">
					<dim>96</dim>
					<dim>16</dim>
					<dim>1</dim>
					<dim>1</dim>
				</port>
			</output>
		</layer>
		<layer id="255" name="Conv_11" type="Convolution" version="opset1">
			<data auto_pad="explicit" dilations="1,1" pads_begin="0,0" pads_end="0,0" strides="1,1"/>
			<input>
				<port id="0">
					<dim>1</dim>
					<dim>16</dim>
					<dim>128</dim>
					<dim>128</dim>
				</port>
				<port id="1">
					<dim>96</dim>
					<dim>16</dim>
					<dim>1</dim>
					<dim>1</dim>
				</port>
			</input>
			<output>
				<port id="2" precision="FP16">
					<dim>1</dim>
					<dim>96</dim>
					<dim>128</dim>
					<dim>128</dim>
				</port>
			</output>
		</layer>
		<layer id="256" name="data_add_11924119294239957" type="Const" version="opset1">
			<data element_type="f16" offset="15644" shape="1,96,1,1" size="192"/>
			<output>
				<port id="0" precision="FP16">
					<dim>1</dim>
					<dim>96</dim>
					<dim>1</dim>
					<dim>1</dim>
				</port>
			</output>
		</layer>
		<layer id="257" name="BatchNormalization_12/variance/Fused_Add_" type="Add" version="opset1">
			<data auto_broadcast="numpy"/>
			<input>
				<port id="0">
					<dim>1</dim>
					<dim>96</dim>
					<dim>128</dim>
					<dim>128</dim>
				</port>
				<port id="1">
					<dim>1</dim>
					<dim>96</dim>
					<dim>1</dim>
					<dim>1</dim>
				</port>
			</input>
			<output>
				<port id="2" names="362" precision="FP16">
					<dim>1</dim>
					<dim>96</dim>
					<dim>128</dim>
					<dim>128</dim>
				</port>
			</output>
		</layer>
		<layer id="258" name="Clip_13" type="Clamp" version="opset1">
			<data max="6" min="0"/>
			<input>
				<port id="0">
					<dim>1</dim>
					<dim>96</dim>
					<dim>128</dim>
					<dim>128</dim>
				</port>
			</input>
			<output>
				<port id="1" names="363" precision="FP16">
					<dim>1</dim>
					<dim>96</dim>
					<dim>128</dim>
					<dim>128</dim>
				</port>
			</output>
		</layer>
		<layer id="259" name="Conv_14/fq_input_0" type="FakeQuantize" version="opset1">
			<data auto_broadcast="numpy" levels="256"/>
			<input>
				<port id="0">
					<dim>1</dim>
					<dim>96</dim>
					<dim>128</dim>
					<dim>128</dim>
				</port>
				<port id="1">
					<dim>1</dim>
					<dim>96</dim>
					<dim>1</dim>
					<dim>1</dim>
				</port>
				<port id="2">
					<dim>1</dim>
					<dim>96</dim>
					<dim>1</dim>
					<dim>1</dim>
				</port>
				<port id="3">
					<dim>1</dim>
					<dim>96</dim>
					<dim>1</dim>
					<dim>1</dim>
				</port>
				<port id="4">
					<dim>1</dim>
					<dim>96</dim>
					<dim>1</dim>
					<dim>1</dim>
				</port>
			</input>
			<output>
				<port id="5" precision="FP16">
					<dim>1</dim>
					<dim>96</dim>
					<dim>128</dim>
					<dim>128</dim>
				</port>
			</output>
		</layer>
		<layer id="260" name="8174/value817610830" type="Const" version="opset1">
			<data element_type="i64" offset="15836" shape="5" size="40"/>
			<output>
				<port id="0" precision="I64">
					<dim>5</dim>
				</port>
			</output>
		</layer>
		<layer id="261" name="BatchNormalization_15/mean/Fused_Mul__copy4264843/quantized56839807" type="Const" version="opset1">
			<data element_type="i8" offset="15876" shape="96,1,3,3" size="864"/>
			<output>
				<port id="0" precision="I8">
					<dim>96</dim>
					<dim>1</dim>
					<dim>3</dim>
					<dim>3</dim>
				</port>
			</output>
		</layer>
		<layer id="262" name="BatchNormalization_15/mean/Fused_Mul__copy4264843/quantized/to_f16" type="Convert" version="opset1">
			<data destination_type="f16"/>
			<input>
				<port id="0">
					<dim>96</dim>
					<dim>1</dim>
					<dim>3</dim>
					<dim>3</dim>
				</port>
			</input>
			<output>
				<port id="1" precision="FP16">
					<dim>96</dim>
					<dim>1</dim>
					<dim>3</dim>
					<dim>3</dim>
				</port>
			</output>
		</layer>
		<layer id="263" name="Conv_14/fq_weights_1/zero_point569610242" type="Const" version="opset1">
			<data element_type="f16" offset="16740" shape="96,1,1,1" size="192"/>
			<output>
				<port id="0" precision="FP16">
					<dim>96</dim>
					<dim>1</dim>
					<dim>1</dim>
					<dim>1</dim>
				</port>
			</output>
		</layer>
		<layer id="264" name="Conv_14/fq_weights_1/minus_zp" type="Subtract" version="opset1">
			<data auto_broadcast="numpy"/>
			<input>
				<port id="0">
					<dim>96</dim>
					<dim>1</dim>
					<dim>3</dim>
					<dim>3</dim>
				</port>
				<port id="1">
					<dim>96</dim>
					<dim>1</dim>
					<dim>1</dim>
					<dim>1</dim>
				</port>
			</input>
			<output>
				<port id="2" precision="FP16">
					<dim>96</dim>
					<dim>1</dim>
					<dim>3</dim>
					<dim>3</dim>
				</port>
			</output>
		</layer>
		<layer id="265" name="Conv_14/fq_weights_1/scale56919975" type="Const" version="opset1">
			<data element_type="f16" offset="16932" shape="96,1,1,1" size="192"/>
			<output>
				<port id="0" precision="FP16">
					<dim>96</dim>
					<dim>1</dim>
					<dim>1</dim>
					<dim>1</dim>
				</port>
			</output>
		</layer>
		<layer id="266" name="Conv_14/fq_weights_1/mulpiply_by_scale" type="Multiply" version="opset1">
			<data auto_broadcast="numpy"/>
			<input>
				<port id="0">
					<dim>96</dim>
					<dim>1</dim>
					<dim>3</dim>
					<dim>3</dim>
				</port>
				<port id="1">
					<dim>96</dim>
					<dim>1</dim>
					<dim>1</dim>
					<dim>1</dim>
				</port>
			</input>
			<output>
				<port id="2" precision="FP16">
					<dim>96</dim>
					<dim>1</dim>
					<dim>3</dim>
					<dim>3</dim>
				</port>
			</output>
		</layer>
		<layer id="267" name="8174" type="Reshape" version="opset1">
			<data special_zero="true"/>
			<input>
				<port id="0">
					<dim>96</dim>
					<dim>1</dim>
					<dim>3</dim>
					<dim>3</dim>
				</port>
				<port id="1">
					<dim>5</dim>
				</port>
			</input>
			<output>
				<port id="2" precision="FP16">
					<dim>96</dim>
					<dim>1</dim>
					<dim>1</dim>
					<dim>3</dim>
					<dim>3</dim>
				</port>
			</output>
		</layer>
		<layer id="268" name="Conv_14" type="GroupConvolution" version="opset1">
			<data auto_pad="explicit" dilations="1,1" pads_begin="1,1" pads_end="1,1" strides="2,2"/>
			<input>
				<port id="0">
					<dim>1</dim>
					<dim>96</dim>
					<dim>128</dim>
					<dim>128</dim>
				</port>
				<port id="1">
					<dim>96</dim>
					<dim>1</dim>
					<dim>1</dim>
					<dim>3</dim>
					<dim>3</dim>
				</port>
			</input>
			<output>
				<port id="2" precision="FP16">
					<dim>1</dim>
					<dim>96</dim>
					<dim>64</dim>
					<dim>64</dim>
				</port>
			</output>
		</layer>
		<layer id="269" name="data_add_119321193742810161" type="Const" version="opset1">
			<data element_type="f16" offset="17124" shape="1,96,1,1" size="192"/>
			<output>
				<port id="0" precision="FP16">
					<dim>1</dim>
					<dim>96</dim>
					<dim>1</dim>
					<dim>1</dim>
				</port>
			</output>
		</layer>
		<layer id="270" name="BatchNormalization_15/variance/Fused_Add_" type="Add" version="opset1">
			<data auto_broadcast="numpy"/>
			<input>
				<port id="0">
					<dim>1</dim>
					<dim>96</dim>
					<dim>64</dim>
					<dim>64</dim>
				</port>
				<port id="1">
					<dim>1</dim>
					<dim>96</dim>
					<dim>1</dim>
					<dim>1</dim>
				</port>
			</input>
			<output>
				<port id="2" names="365" precision="FP16">
					<dim>1</dim>
					<dim>96</dim>
					<dim>64</dim>
					<dim>64</dim>
				</port>
			</output>
		</layer>
		<layer id="271" name="Clip_16" type="Clamp" version="opset1">
			<data max="6" min="0"/>
			<input>
				<port id="0">
					<dim>1</dim>
					<dim>96</dim>
					<dim>64</dim>
					<dim>64</dim>
				</port>
			</input>
			<output>
				<port id="1" names="366" precision="FP16">
					<dim>1</dim>
					<dim>96</dim>
					<dim>64</dim>
					<dim>64</dim>
				</port>
			</output>
		</layer>
		<layer id="272" name="Conv_17/fq_input_0" type="FakeQuantize" version="opset1">
			<data auto_broadcast="numpy" levels="256"/>
			<input>
				<port id="0">
					<dim>1</dim>
					<dim>96</dim>
					<dim>64</dim>
					<dim>64</dim>
				</port>
				<port id="1"/>
				<port id="2"/>
				<port id="3"/>
				<port id="4"/>
			</input>
			<output>
				<port id="5" precision="FP16">
					<dim>1</dim>
					<dim>96</dim>
					<dim>64</dim>
					<dim>64</dim>
				</port>
			</output>
		</layer>
		<layer id="273" name="BatchNormalization_18/mean/Fused_Mul__copy4314845/quantized673910500" type="Const" version="opset1">
			<data element_type="i8" offset="17316" shape="24,96,1,1" size="2304"/>
			<output>
				<port id="0" precision="I8">
					<dim>24</dim>
					<dim>96</dim>
					<dim>1</dim>
					<dim>1</dim>
				</port>
			</output>
		</layer>
		<layer id="274" name="BatchNormalization_18/mean/Fused_Mul__copy4314845/quantized/to_f16" type="Convert" version="opset1">
			<data destination_type="f16"/>
			<input>
				<port id="0">
					<dim>24</dim>
					<dim>96</dim>
					<dim>1</dim>
					<dim>1</dim>
				</port>
			</input>
			<output>
				<port id="1" precision="FP16">
					<dim>24</dim>
					<dim>96</dim>
					<dim>1</dim>
					<dim>1</dim>
				</port>
			</output>
		</layer>
		<layer id="275" name="Conv_17/fq_weights_1/zero_point67529561" type="Const" version="opset1">
			<data element_type="f16" offset="19620" shape="24,1,1,1" size="48"/>
			<output>
				<port id="0" precision="FP16">
					<dim>24</dim>
					<dim>1</dim>
					<dim>1</dim>
					<dim>1</dim>
				</port>
			</output>
		</layer>
		<layer id="276" name="Conv_17/fq_weights_1/minus_zp" type="Subtract" version="opset1">
			<data auto_broadcast="numpy"/>
			<input>
				<port id="0">
					<dim>24</dim>
					<dim>96</dim>
					<dim>1</dim>
					<dim>1</dim>
				</port>
				<port id="1">
					<dim>24</dim>
					<dim>1</dim>
					<dim>1</dim>
					<dim>1</dim>
				</port>
			</input>
			<output>
				<port id="2" precision="FP16">
					<dim>24</dim>
					<dim>96</dim>
					<dim>1</dim>
					<dim>1</dim>
				</port>
			</output>
		</layer>
		<layer id="277" name="Conv_17/fq_weights_1/scale674710794" type="Const" version="opset1">
			<data element_type="f16" offset="19668" shape="24,1,1,1" size="48"/>
			<output>
				<port id="0" precision="FP16">
					<dim>24</dim>
					<dim>1</dim>
					<dim>1</dim>
					<dim>1</dim>
				</port>
			</output>
		</layer>
		<layer id="278" name="Conv_17/fq_weights_1/mulpiply_by_scale" type="Multiply" version="opset1">
			<data auto_broadcast="numpy"/>
			<input>
				<port id="0">
					<dim>24</dim>
					<dim>96</dim>
					<dim>1</dim>
					<dim>1</dim>
				</port>
				<port id="1">
					<dim>24</dim>
					<dim>1</dim>
					<dim>1</dim>
					<dim>1</dim>
				</port>
			</input>
			<output>
				<port id="2" precision="FP16">
					<dim>24</dim>
					<dim>96</dim>
					<dim>1</dim>
					<dim>1</dim>
				</port>
			</output>
		</layer>
		<layer id="279" name="Conv_17" type="Convolution" version="opset1">
			<data auto_pad="explicit" dilations="1,1" pads_begin="0,0" pads_end="0,0" strides="1,1"/>
			<input>
				<port id="0">
					<dim>1</dim>
					<dim>96</dim>
					<dim>64</dim>
					<dim>64</dim>
				</port>
				<port id="1">
					<dim>24</dim>
					<dim>96</dim>
					<dim>1</dim>
					<dim>1</dim>
				</port>
			</input>
			<output>
				<port id="2" precision="FP16">
					<dim>1</dim>
					<dim>24</dim>
					<dim>64</dim>
					<dim>64</dim>
				</port>
			</output>
		</layer>
		<layer id="280" name="data_add_119401194543310989" type="Const" version="opset1">
			<data element_type="f16" offset="19716" shape="1,24,1,1" size="48"/>
			<output>
				<port id="0" precision="FP16">
					<dim>1</dim>
					<dim>24</dim>
					<dim>1</dim>
					<dim>1</dim>
				</port>
			</output>
		</layer>
		<layer id="281" name="BatchNormalization_18/variance/Fused_Add_" type="Add" version="opset1">
			<data auto_broadcast="numpy"/>
			<input>
				<port id="0">
					<dim>1</dim>
					<dim>24</dim>
					<dim>64</dim>
					<dim>64</dim>
				</port>
				<port id="1">
					<dim>1</dim>
					<dim>24</dim>
					<dim>1</dim>
					<dim>1</dim>
				</port>
			</input>
			<output>
				<port id="2" names="368" precision="FP16">
					<dim>1</dim>
					<dim>24</dim>
					<dim>64</dim>
					<dim>64</dim>
				</port>
			</output>
		</layer>
		<layer id="282" name="Add_27/fq_input_1" type="FakeQuantize" version="opset1">
			<data auto_broadcast="numpy" levels="256"/>
			<input>
				<port id="0">
					<dim>1</dim>
					<dim>24</dim>
					<dim>64</dim>
					<dim>64</dim>
				</port>
				<port id="1"/>
				<port id="2"/>
				<port id="3"/>
				<port id="4"/>
			</input>
			<output>
				<port id="5" precision="FP16">
					<dim>1</dim>
					<dim>24</dim>
					<dim>64</dim>
					<dim>64</dim>
				</port>
			</output>
		</layer>
		<layer id="283" name="BatchNormalization_20/mean/Fused_Mul__copy4354847/quantized558710818" type="Const" version="opset1">
			<data element_type="i8" offset="19764" shape="144,24,1,1" size="3456"/>
			<output>
				<port id="0" precision="I8">
					<dim>144</dim>
					<dim>24</dim>
					<dim>1</dim>
					<dim>1</dim>
				</port>
			</output>
		</layer>
		<layer id="284" name="BatchNormalization_20/mean/Fused_Mul__copy4354847/quantized/to_f16" type="Convert" version="opset1">
			<data destination_type="f16"/>
			<input>
				<port id="0">
					<dim>144</dim>
					<dim>24</dim>
					<dim>1</dim>
					<dim>1</dim>
				</port>
			</input>
			<output>
				<port id="1" precision="FP16">
					<dim>144</dim>
					<dim>24</dim>
					<dim>1</dim>
					<dim>1</dim>
				</port>
			</output>
		</layer>
		<layer id="285" name="Conv_19/fq_weights_1/zero_point56009456" type="Const" version="opset1">
			<data element_type="f16" offset="23220" shape="144,1,1,1" size="288"/>
			<output>
				<port id="0" precision="FP16">
					<dim>144</dim>
					<dim>1</dim>
					<dim>1</dim>
					<dim>1</dim>
				</port>
			</output>
		</layer>
		<layer id="286" name="Conv_19/fq_weights_1/minus_zp" type="Subtract" version="opset1">
			<data auto_broadcast="numpy"/>
			<input>
				<port id="0">
					<dim>144</dim>
					<dim>24</dim>
					<dim>1</dim>
					<dim>1</dim>
				</port>
				<port id="1">
					<dim>144</dim>
					<dim>1</dim>
					<dim>1</dim>
					<dim>1</dim>
				</port>
			</input>
			<output>
				<port id="2" precision="FP16">
					<dim>144</dim>
					<dim>24</dim>
					<dim>1</dim>
					<dim>1</dim>
				</port>
			</output>
		</layer>
		<layer id="287" name="Conv_19/fq_weights_1/scale55959936" type="Const" version="opset1">
			<data element_type="f16" offset="23508" shape="144,1,1,1" size="288"/>
			<output>
				<port id="0" precision="FP16">
					<dim>144</dim>
					<dim>1</dim>
					<dim>1</dim>
					<dim>1</dim>
				</port>
			</output>
		</layer>
		<layer id="288" name="Conv_19/fq_weights_1/mulpiply_by_scale" type="Multiply" version="opset1">
			<data auto_broadcast="numpy"/>
			<input>
				<port id="0">
					<dim>144</dim>
					<dim>24</dim>
					<dim>1</dim>
					<dim>1</dim>
				</port>
				<port id="1">
					<dim>144</dim>
					<dim>1</dim>
					<dim>1</dim>
					<dim>1</dim>
				</port>
			</input>
			<output>
				<port id="2" precision="FP16">
					<dim>144</dim>
					<dim>24</dim>
					<dim>1</dim>
					<dim>1</dim>
				</port>
			</output>
		</layer>
		<layer id="289" name="Conv_19" type="Convolution" version="opset1">
			<data auto_pad="explicit" dilations="1,1" pads_begin="0,0" pads_end="0,0" strides="1,1"/>
			<input>
				<port id="0">
					<dim>1</dim>
					<dim>24</dim>
					<dim>64</dim>
					<dim>64</dim>
				</port>
				<port id="1">
					<dim>144</dim>
					<dim>24</dim>
					<dim>1</dim>
					<dim>1</dim>
				</port>
			</input>
			<output>
				<port id="2" precision="FP16">
					<dim>1</dim>
					<dim>144</dim>
					<dim>64</dim>
					<dim>64</dim>
				</port>
			</output>
		</layer>
		<layer id="290" name="data_add_11948119534379363" type="Const" version="opset1">
			<data element_type="f16" offset="23796" shape="1,144,1,1" size="288"/>
			<output>
				<port id="0" precision="FP16">
					<dim>1</dim>
					<dim>144</dim>
					<dim>1</dim>
					<dim>1</dim>
				</port>
			</output>
		</layer>
		<layer id="291" name="BatchNormalization_20/variance/Fused_Add_" type="Add" version="opset1">
			<data auto_broadcast="numpy"/>
			<input>
				<port id="0">
					<dim>1</dim>
					<dim>144</dim>
					<dim>64</dim>
					<dim>64</dim>
				</port>
				<port id="1">
					<dim>1</dim>
					<dim>144</dim>
					<dim>1</dim>
					<dim>1</dim>
				</port>
			</input>
			<output>
				<port id="2" names="370" precision="FP16">
					<dim>1</dim>
					<dim>144</dim>
					<dim>64</dim>
					<dim>64</dim>
				</port>
			</output>
		</layer>
		<layer id="292" name="Clip_21" type="Clamp" version="opset1">
			<data max="6" min="0"/>
			<input>
				<port id="0">
					<dim>1</dim>
					<dim>144</dim>
					<dim>64</dim>
					<dim>64</dim>
				</port>
			</input>
			<output>
				<port id="1" names="371" precision="FP16">
					<dim>1</dim>
					<dim>144</dim>
					<dim>64</dim>
					<dim>64</dim>
				</port>
			</output>
		</layer>
		<layer id="293" name="Conv_22/fq_input_0" type="FakeQuantize" version="opset1">
			<data auto_broadcast="numpy" levels="256"/>
			<input>
				<port id="0">
					<dim>1</dim>
					<dim>144</dim>
					<dim>64</dim>
					<dim>64</dim>
				</port>
				<port id="1">
					<dim>1</dim>
					<dim>144</dim>
					<dim>1</dim>
					<dim>1</dim>
				</port>
				<port id="2">
					<dim>1</dim>
					<dim>144</dim>
					<dim>1</dim>
					<dim>1</dim>
				</port>
				<port id="3">
					<dim>1</dim>
					<dim>144</dim>
					<dim>1</dim>
					<dim>1</dim>
				</port>
				<port id="4">
					<dim>1</dim>
					<dim>144</dim>
					<dim>1</dim>
					<dim>1</dim>
				</port>
			</input>
			<output>
				<port id="5" precision="FP16">
					<dim>1</dim>
					<dim>144</dim>
					<dim>64</dim>
					<dim>64</dim>
				</port>
			</output>
		</layer>
		<layer id="294" name="8130/value813210380" type="Const" version="opset1">
			<data element_type="i64" offset="24084" shape="5" size="40"/>
			<output>
				<port id="0" precision="I64">
					<dim>5</dim>
				</port>
			</output>
		</layer>
		<layer id="295" name="BatchNormalization_23/mean/Fused_Mul__copy4404849/quantized637910344" type="Const" version="opset1">
			<data element_type="i8" offset="24124" shape="144,1,3,3" size="1296"/>
			<output>
				<port id="0" precision="I8">
					<dim>144</dim>
					<dim>1</dim>
					<dim>3</dim>
					<dim>3</dim>
				</port>
			</output>
		</layer>
		<layer id="296" name="BatchNormalization_23/mean/Fused_Mul__copy4404849/quantized/to_f16" type="Convert" version="opset1">
			<data destination_type="f16"/>
			<input>
				<port id="0">
					<dim>144</dim>
					<dim>1</dim>
					<dim>3</dim>
					<dim>3</dim>
				</port>
			</input>
			<output>
				<port id="1" precision="FP16">
					<dim>144</dim>
					<dim>1</dim>
					<dim>3</dim>
					<dim>3</dim>
				</port>
			</output>
		</layer>
		<layer id="297" name="Conv_22/fq_weights_1/zero_point63929690" type="Const" version="opset1">
			<data element_type="f16" offset="25420" shape="144,1,1,1" size="288"/>
			<output>
				<port id="0" precision="FP16">
					<dim>144</dim>
					<dim>1</dim>
					<dim>1</dim>
					<dim>1</dim>
				</port>
			</output>
		</layer>
		<layer id="298" name="Conv_22/fq_weights_1/minus_zp" type="Subtract" version="opset1">
			<data auto_broadcast="numpy"/>
			<input>
				<port id="0">
					<dim>144</dim>
					<dim>1</dim>
					<dim>3</dim>
					<dim>3</dim>
				</port>
				<port id="1">
					<dim>144</dim>
					<dim>1</dim>
					<dim>1</dim>
					<dim>1</dim>
				</port>
			</input>
			<output>
				<port id="2" precision="FP16">
					<dim>144</dim>
					<dim>1</dim>
					<dim>3</dim>
					<dim>3</dim>
				</port>
			</output>
		</layer>
		<layer id="299" name="Conv_22/fq_weights_1/scale638710953" type="Const" version="opset1">
			<data element_type="f16" offset="25708" shape="144,1,1,1" size="288"/>
			<output>
				<port id="0" precision="FP16">
					<dim>144</dim>
					<dim>1</dim>
					<dim>1</dim>
					<dim>1</dim>
				</port>
			</output>
		</layer>
		<layer id="300" name="Conv_22/fq_weights_1/mulpiply_by_scale" type="Multiply" version="opset1">
			<data auto_broadcast="numpy"/>
			<input>
				<port id="0">
					<dim>144</dim>
					<dim>1</dim>
					<dim>3</dim>
					<dim>3</dim>
				</port>
				<port id="1">
					<dim>144</dim>
					<dim>1</dim>
					<dim>1</dim>
					<dim>1</dim>
				</port>
			</input>
			<output>
				<port id="2" precision="FP16">
					<dim>144</dim>
					<dim>1</dim>
					<dim>3</dim>
					<dim>3</dim>
				</port>
			</output>
		</layer>
		<layer id="301" name="8130" type="Reshape" version="opset1">
			<data special_zero="true"/>
			<input>
				<port id="0">
					<dim>144</dim>
					<dim>1</dim>
					<dim>3</dim>
					<dim>3</dim>
				</port>
				<port id="1">
					<dim>5</dim>
				</port>
			</input>
			<output>
				<port id="2" precision="FP16">
					<dim>144</dim>
					<dim>1</dim>
					<dim>1</dim>
					<dim>3</dim>
					<dim>3</dim>
				</port>
			</output>
		</layer>
		<layer id="302" name="Conv_22" type="GroupConvolution" version="opset1">
			<data auto_pad="explicit" dilations="1,1" pads_begin="1,1" pads_end="1,1" strides="1,1"/>
			<input>
				<port id="0">
					<dim>1</dim>
					<dim>144</dim>
					<dim>64</dim>
					<dim>64</dim>
				</port>
				<port id="1">
					<dim>144</dim>
					<dim>1</dim>
					<dim>1</dim>
					<dim>3</dim>
					<dim>3</dim>
				</port>
			</input>
			<output>
				<port id="2" precision="FP16">
					<dim>1</dim>
					<dim>144</dim>
					<dim>64</dim>
					<dim>64</dim>
				</port>
			</output>
		</layer>
		<layer id="303" name="data_add_119561196144210257" type="Const" version="opset1">
			<data element_type="f16" offset="25996" shape="1,144,1,1" size="288"/>
			<output>
				<port id="0" precision="FP16">
					<dim>1</dim>
					<dim>144</dim>
					<dim>1</dim>
					<dim>1</dim>
				</port>
			</output>
		</layer>
		<layer id="304" name="BatchNormalization_23/variance/Fused_Add_" type="Add" version="opset1">
			<data auto_broadcast="numpy"/>
			<input>
				<port id="0">
					<dim>1</dim>
					<dim>144</dim>
					<dim>64</dim>
					<dim>64</dim>
				</port>
				<port id="1">
					<dim>1</dim>
					<dim>144</dim>
					<dim>1</dim>
					<dim>1</dim>
				</port>
			</input>
			<output>
				<port id="2" names="373" precision="FP16">
					<dim>1</dim>
					<dim>144</dim>
					<dim>64</dim>
					<dim>64</dim>
				</port>
			</output>
		</layer>
		<layer id="305" name="Clip_24" type="Clamp" version="opset1">
			<data max="6" min="0"/>
			<input>
				<port id="0">
					<dim>1</dim>
					<dim>144</dim>
					<dim>64</dim>
					<dim>64</dim>
				</port>
			</input>
			<output>
				<port id="1" names="374" precision="FP16">
					<dim>1</dim>
					<dim>144</dim>
					<dim>64</dim>
					<dim>64</dim>
				</port>
			</output>
		</layer>
		<layer id="306" name="Conv_25/fq_input_0" type="FakeQuantize" version="opset1">
			<data auto_broadcast="numpy" levels="256"/>
			<input>
				<port id="0">
					<dim>1</dim>
					<dim>144</dim>
					<dim>64</dim>
					<dim>64</dim>
				</port>
				<port id="1"/>
				<port id="2"/>
				<port id="3"/>
				<port id="4"/>
			</input>
			<output>
				<port id="5" precision="FP16">
					<dim>1</dim>
					<dim>144</dim>
					<dim>64</dim>
					<dim>64</dim>
				</port>
			</output>
		</layer>
		<layer id="307" name="BatchNormalization_26/mean/Fused_Mul__copy4454851/quantized58759741" type="Const" version="opset1">
			<data element_type="i8" offset="26284" shape="24,144,1,1" size="3456"/>
			<output>
				<port id="0" precision="I8">
					<dim>24</dim>
					<dim>144</dim>
					<dim>1</dim>
					<dim>1</dim>
				</port>
			</output>
		</layer>
		<layer id="308" name="BatchNormalization_26/mean/Fused_Mul__copy4454851/quantized/to_f16" type="Convert" version="opset1">
			<data destination_type="f16"/>
			<input>
				<port id="0">
					<dim>24</dim>
					<dim>144</dim>
					<dim>1</dim>
					<dim>1</dim>
				</port>
			</input>
			<output>
				<port id="1" precision="FP16">
					<dim>24</dim>
					<dim>144</dim>
					<dim>1</dim>
					<dim>1</dim>
				</port>
			</output>
		</layer>
		<layer id="309" name="Conv_25/fq_weights_1/zero_point58889756" type="Const" version="opset1">
			<data element_type="f16" offset="29740" shape="24,1,1,1" size="48"/>
			<output>
				<port id="0" precision="FP16">
					<dim>24</dim>
					<dim>1</dim>
					<dim>1</dim>
					<dim>1</dim>
				</port>
			</output>
		</layer>
		<layer id="310" name="Conv_25/fq_weights_1/minus_zp" type="Subtract" version="opset1">
			<data auto_broadcast="numpy"/>
			<input>
				<port id="0">
					<dim>24</dim>
					<dim>144</dim>
					<dim>1</dim>
					<dim>1</dim>
				</port>
				<port id="1">
					<dim>24</dim>
					<dim>1</dim>
					<dim>1</dim>
					<dim>1</dim>
				</port>
			</input>
			<output>
				<port id="2" precision="FP16">
					<dim>24</dim>
					<dim>144</dim>
					<dim>1</dim>
					<dim>1</dim>
				</port>
			</output>
		</layer>
		<layer id="311" name="Conv_25/fq_weights_1/scale58839735" type="Const" version="opset1">
			<data element_type="f16" offset="29788" shape="24,1,1,1" size="48"/>
			<output>
				<port id="0" precision="FP16">
					<dim>24</dim>
					<dim>1</dim>
					<dim>1</dim>
					<dim>1</dim>
				</port>
			</output>
		</layer>
		<layer id="312" name="Conv_25/fq_weights_1/mulpiply_by_scale" type="Multiply" version="opset1">
			<data auto_broadcast="numpy"/>
			<input>
				<port id="0">
					<dim>24</dim>
					<dim>144</dim>
					<dim>1</dim>
					<dim>1</dim>
				</port>
				<port id="1">
					<dim>24</dim>
					<dim>1</dim>
					<dim>1</dim>
					<dim>1</dim>
				</port>
			</input>
			<output>
				<port id="2" precision="FP16">
					<dim>24</dim>
					<dim>144</dim>
					<dim>1</dim>
					<dim>1</dim>
				</port>
			</output>
		</layer>
		<layer id="313" name="Conv_25" type="Convolution" version="opset1">
			<data auto_pad="explicit" dilations="1,1" pads_begin="0,0" pads_end="0,0" strides="1,1"/>
			<input>
				<port id="0">
					<dim>1</dim>
					<dim>144</dim>
					<dim>64</dim>
					<dim>64</dim>
				</port>
				<port id="1">
					<dim>24</dim>
					<dim>144</dim>
					<dim>1</dim>
					<dim>1</dim>
				</port>
			</input>
			<output>
				<port id="2" precision="FP16">
					<dim>1</dim>
					<dim>24</dim>
					<dim>64</dim>
					<dim>64</dim>
				</port>
			</output>
		</layer>
		<layer id="314" name="data_add_11964119694479657" type="Const" version="opset1">
			<data element_type="f16" offset="29836" shape="1,24,1,1" size="48"/>
			<output>
				<port id="0" precision="FP16">
					<dim>1</dim>
					<dim>24</dim>
					<dim>1</dim>
					<dim>1</dim>
				</port>
			</output>
		</layer>
		<layer id="315" name="BatchNormalization_26/variance/Fused_Add_" type="Add" version="opset1">
			<data auto_broadcast="numpy"/>
			<input>
				<port id="0">
					<dim>1</dim>
					<dim>24</dim>
					<dim>64</dim>
					<dim>64</dim>
				</port>
				<port id="1">
					<dim>1</dim>
					<dim>24</dim>
					<dim>1</dim>
					<dim>1</dim>
				</port>
			</input>
			<output>
				<port id="2" names="376" precision="FP16">
					<dim>1</dim>
					<dim>24</dim>
					<dim>64</dim>
					<dim>64</dim>
				</port>
			</output>
		</layer>
		<layer id="316" name="Add_27/fq_input_0" type="FakeQuantize" version="opset1">
			<data auto_broadcast="numpy" levels="256"/>
			<input>
				<port id="0">
					<dim>1</dim>
					<dim>24</dim>
					<dim>64</dim>
					<dim>64</dim>
				</port>
				<port id="1"/>
				<port id="2"/>
				<port id="3"/>
				<port id="4"/>
			</input>
			<output>
				<port id="5" precision="FP16">
					<dim>1</dim>
					<dim>24</dim>
					<dim>64</dim>
					<dim>64</dim>
				</port>
			</output>
		</layer>
		<layer id="317" name="Add_27" type="Add" version="opset1">
			<data auto_broadcast="numpy"/>
			<input>
				<port id="0">
					<dim>1</dim>
					<dim>24</dim>
					<dim>64</dim>
					<dim>64</dim>
				</port>
				<port id="1">
					<dim>1</dim>
					<dim>24</dim>
					<dim>64</dim>
					<dim>64</dim>
				</port>
			</input>
			<output>
				<port id="2" names="377" precision="FP16">
					<dim>1</dim>
					<dim>24</dim>
					<dim>64</dim>
					<dim>64</dim>
				</port>
			</output>
		</layer>
		<layer id="318" name="Conv_28/fq_input_0" type="FakeQuantize" version="opset1">
			<data auto_broadcast="numpy" levels="256"/>
			<input>
				<port id="0">
					<dim>1</dim>
					<dim>24</dim>
					<dim>64</dim>
					<dim>64</dim>
				</port>
				<port id="1"/>
				<port id="2"/>
				<port id="3"/>
				<port id="4"/>
			</input>
			<output>
				<port id="5" precision="FP16">
					<dim>1</dim>
					<dim>24</dim>
					<dim>64</dim>
					<dim>64</dim>
				</port>
			</output>
		</layer>
		<layer id="319" name="BatchNormalization_29/mean/Fused_Mul__copy4504853/quantized575510941" type="Const" version="opset1">
			<data element_type="i8" offset="29884" shape="144,24,1,1" size="3456"/>
			<output>
				<port id="0" precision="I8">
					<dim>144</dim>
					<dim>24</dim>
					<dim>1</dim>
					<dim>1</dim>
				</port>
			</output>
		</layer>
		<layer id="320" name="BatchNormalization_29/mean/Fused_Mul__copy4504853/quantized/to_f16" type="Convert" version="opset1">
			<data destination_type="f16"/>
			<input>
				<port id="0">
					<dim>144</dim>
					<dim>24</dim>
					<dim>1</dim>
					<dim>1</dim>
				</port>
			</input>
			<output>
				<port id="1" precision="FP16">
					<dim>144</dim>
					<dim>24</dim>
					<dim>1</dim>
					<dim>1</dim>
				</port>
			</output>
		</layer>
		<layer id="321" name="Conv_28/fq_weights_1/zero_point57689852" type="Const" version="opset1">
			<data element_type="f16" offset="33340" shape="144,1,1,1" size="288"/>
			<output>
				<port id="0" precision="FP16">
					<dim>144</dim>
					<dim>1</dim>
					<dim>1</dim>
					<dim>1</dim>
				</port>
			</output>
		</layer>
		<layer id="322" name="Conv_28/fq_weights_1/minus_zp" type="Subtract" version="opset1">
			<data auto_broadcast="numpy"/>
			<input>
				<port id="0">
					<dim>144</dim>
					<dim>24</dim>
					<dim>1</dim>
					<dim>1</dim>
				</port>
				<port id="1">
					<dim>144</dim>
					<dim>1</dim>
					<dim>1</dim>
					<dim>1</dim>
				</port>
			</input>
			<output>
				<port id="2" precision="FP16">
					<dim>144</dim>
					<dim>24</dim>
					<dim>1</dim>
					<dim>1</dim>
				</port>
			</output>
		</layer>
		<layer id="323" name="Conv_28/fq_weights_1/scale576310755" type="Const" version="opset1">
			<data element_type="f16" offset="33628" shape="144,1,1,1" size="288"/>
			<output>
				<port id="0" precision="FP16">
					<dim>144</dim>
					<dim>1</dim>
					<dim>1</dim>
					<dim>1</dim>
				</port>
			</output>
		</layer>
		<layer id="324" name="Conv_28/fq_weights_1/mulpiply_by_scale" type="Multiply" version="opset1">
			<data auto_broadcast="numpy"/>
			<input>
				<port id="0">
					<dim>144</dim>
					<dim>24</dim>
					<dim>1</dim>
					<dim>1</dim>
				</port>
				<port id="1">
					<dim>144</dim>
					<dim>1</dim>
					<dim>1</dim>
					<dim>1</dim>
				</port>
			</input>
			<output>
				<port id="2" precision="FP16">
					<dim>144</dim>
					<dim>24</dim>
					<dim>1</dim>
					<dim>1</dim>
				</port>
			</output>
		</layer>
		<layer id="325" name="Conv_28" type="Convolution" version="opset1">
			<data auto_pad="explicit" dilations="1,1" pads_begin="0,0" pads_end="0,0" strides="1,1"/>
			<input>
				<port id="0">
					<dim>1</dim>
					<dim>24</dim>
					<dim>64</dim>
					<dim>64</dim>
				</port>
				<port id="1">
					<dim>144</dim>
					<dim>24</dim>
					<dim>1</dim>
					<dim>1</dim>
				</port>
			</input>
			<output>
				<port id="2" precision="FP16">
					<dim>1</dim>
					<dim>144</dim>
					<dim>64</dim>
					<dim>64</dim>
				</port>
			</output>
		</layer>
		<layer id="326" name="data_add_11972119774529621" type="Const" version="opset1">
			<data element_type="f16" offset="33916" shape="1,144,1,1" size="288"/>
			<output>
				<port id="0" precision="FP16">
					<dim>1</dim>
					<dim>144</dim>
					<dim>1</dim>
					<dim>1</dim>
				</port>
			</output>
		</layer>
		<layer id="327" name="BatchNormalization_29/variance/Fused_Add_" type="Add" version="opset1">
			<data auto_broadcast="numpy"/>
			<input>
				<port id="0">
					<dim>1</dim>
					<dim>144</dim>
					<dim>64</dim>
					<dim>64</dim>
				</port>
				<port id="1">
					<dim>1</dim>
					<dim>144</dim>
					<dim>1</dim>
					<dim>1</dim>
				</port>
			</input>
			<output>
				<port id="2" names="379" precision="FP16">
					<dim>1</dim>
					<dim>144</dim>
					<dim>64</dim>
					<dim>64</dim>
				</port>
			</output>
		</layer>
		<layer id="328" name="Clip_30" type="Clamp" version="opset1">
			<data max="6" min="0"/>
			<input>
				<port id="0">
					<dim>1</dim>
					<dim>144</dim>
					<dim>64</dim>
					<dim>64</dim>
				</port>
			</input>
			<output>
				<port id="1" names="380" precision="FP16">
					<dim>1</dim>
					<dim>144</dim>
					<dim>64</dim>
					<dim>64</dim>
				</port>
			</output>
		</layer>
		<layer id="329" name="Conv_31/fq_input_0" type="FakeQuantize" version="opset1">
			<data auto_broadcast="numpy" levels="256"/>
			<input>
				<port id="0">
					<dim>1</dim>
					<dim>144</dim>
					<dim>64</dim>
					<dim>64</dim>
				</port>
				<port id="1">
					<dim>1</dim>
					<dim>144</dim>
					<dim>1</dim>
					<dim>1</dim>
				</port>
				<port id="2">
					<dim>1</dim>
					<dim>144</dim>
					<dim>1</dim>
					<dim>1</dim>
				</port>
				<port id="3">
					<dim>1</dim>
					<dim>144</dim>
					<dim>1</dim>
					<dim>1</dim>
				</port>
				<port id="4">
					<dim>1</dim>
					<dim>144</dim>
					<dim>1</dim>
					<dim>1</dim>
				</port>
			</input>
			<output>
				<port id="5" precision="FP16">
					<dim>1</dim>
					<dim>144</dim>
					<dim>64</dim>
					<dim>64</dim>
				</port>
			</output>
		</layer>
		<layer id="330" name="8158/value81609888" type="Const" version="opset1">
			<data element_type="i64" offset="24084" shape="5" size="40"/>
			<output>
				<port id="0" precision="I64">
					<dim>5</dim>
				</port>
			</output>
		</layer>
		<layer id="331" name="BatchNormalization_32/mean/Fused_Mul__copy4554855/quantized635510482" type="Const" version="opset1">
			<data element_type="i8" offset="34204" shape="144,1,3,3" size="1296"/>
			<output>
				<port id="0" precision="I8">
					<dim>144</dim>
					<dim>1</dim>
					<dim>3</dim>
					<dim>3</dim>
				</port>
			</output>
		</layer>
		<layer id="332" name="BatchNormalization_32/mean/Fused_Mul__copy4554855/quantized/to_f16" type="Convert" version="opset1">
			<data destination_type="f16"/>
			<input>
				<port id="0">
					<dim>144</dim>
					<dim>1</dim>
					<dim>3</dim>
					<dim>3</dim>
				</port>
			</input>
			<output>
				<port id="1" precision="FP16">
					<dim>144</dim>
					<dim>1</dim>
					<dim>3</dim>
					<dim>3</dim>
				</port>
			</output>
		</layer>
		<layer id="333" name="Conv_31/fq_weights_1/zero_point63689594" type="Const" version="opset1">
			<data element_type="f16" offset="35500" shape="144,1,1,1" size="288"/>
			<output>
				<port id="0" precision="FP16">
					<dim>144</dim>
					<dim>1</dim>
					<dim>1</dim>
					<dim>1</dim>
				</port>
			</output>
		</layer>
		<layer id="334" name="Conv_31/fq_weights_1/minus_zp" type="Subtract" version="opset1">
			<data auto_broadcast="numpy"/>
			<input>
				<port id="0">
					<dim>144</dim>
					<dim>1</dim>
					<dim>3</dim>
					<dim>3</dim>
				</port>
				<port id="1">
					<dim>144</dim>
					<dim>1</dim>
					<dim>1</dim>
					<dim>1</dim>
				</port>
			</input>
			<output>
				<port id="2" precision="FP16">
					<dim>144</dim>
					<dim>1</dim>
					<dim>3</dim>
					<dim>3</dim>
				</port>
			</output>
		</layer>
		<layer id="335" name="Conv_31/fq_weights_1/scale636310863" type="Const" version="opset1">
			<data element_type="f16" offset="35788" shape="144,1,1,1" size="288"/>
			<output>
				<port id="0" precision="FP16">
					<dim>144</dim>
					<dim>1</dim>
					<dim>1</dim>
					<dim>1</dim>
				</port>
			</output>
		</layer>
		<layer id="336" name="Conv_31/fq_weights_1/mulpiply_by_scale" type="Multiply" version="opset1">
			<data auto_broadcast="numpy"/>
			<input>
				<port id="0">
					<dim>144</dim>
					<dim>1</dim>
					<dim>3</dim>
					<dim>3</dim>
				</port>
				<port id="1">
					<dim>144</dim>
					<dim>1</dim>
					<dim>1</dim>
					<dim>1</dim>
				</port>
			</input>
			<output>
				<port id="2" precision="FP16">
					<dim>144</dim>
					<dim>1</dim>
					<dim>3</dim>
					<dim>3</dim>
				</port>
			</output>
		</layer>
		<layer id="337" name="8158" type="Reshape" version="opset1">
			<data special_zero="true"/>
			<input>
				<port id="0">
					<dim>144</dim>
					<dim>1</dim>
					<dim>3</dim>
					<dim>3</dim>
				</port>
				<port id="1">
					<dim>5</dim>
				</port>
			</input>
			<output>
				<port id="2" precision="FP16">
					<dim>144</dim>
					<dim>1</dim>
					<dim>1</dim>
					<dim>3</dim>
					<dim>3</dim>
				</port>
			</output>
		</layer>
		<layer id="338" name="Conv_31" type="GroupConvolution" version="opset1">
			<data auto_pad="explicit" dilations="1,1" pads_begin="1,1" pads_end="1,1" strides="2,2"/>
			<input>
				<port id="0">
					<dim>1</dim>
					<dim>144</dim>
					<dim>64</dim>
					<dim>64</dim>
				</port>
				<port id="1">
					<dim>144</dim>
					<dim>1</dim>
					<dim>1</dim>
					<dim>3</dim>
					<dim>3</dim>
				</port>
			</input>
			<output>
				<port id="2" precision="FP16">
					<dim>1</dim>
					<dim>144</dim>
					<dim>32</dim>
					<dim>32</dim>
				</port>
			</output>
		</layer>
		<layer id="339" name="data_add_119801198545710839" type="Const" version="opset1">
			<data element_type="f16" offset="36076" shape="1,144,1,1" size="288"/>
			<output>
				<port id="0" precision="FP16">
					<dim>1</dim>
					<dim>144</dim>
					<dim>1</dim>
					<dim>1</dim>
				</port>
			</output>
		</layer>
		<layer id="340" name="BatchNormalization_32/variance/Fused_Add_" type="Add" version="opset1">
			<data auto_broadcast="numpy"/>
			<input>
				<port id="0">
					<dim>1</dim>
					<dim>144</dim>
					<dim>32</dim>
					<dim>32</dim>
				</port>
				<port id="1">
					<dim>1</dim>
					<dim>144</dim>
					<dim>1</dim>
					<dim>1</dim>
				</port>
			</input>
			<output>
				<port id="2" names="382" precision="FP16">
					<dim>1</dim>
					<dim>144</dim>
					<dim>32</dim>
					<dim>32</dim>
				</port>
			</output>
		</layer>
		<layer id="341" name="Clip_33" type="Clamp" version="opset1">
			<data max="6" min="0"/>
			<input>
				<port id="0">
					<dim>1</dim>
					<dim>144</dim>
					<dim>32</dim>
					<dim>32</dim>
				</port>
			</input>
			<output>
				<port id="1" names="383" precision="FP16">
					<dim>1</dim>
					<dim>144</dim>
					<dim>32</dim>
					<dim>32</dim>
				</port>
			</output>
		</layer>
		<layer id="342" name="Conv_34/fq_input_0" type="FakeQuantize" version="opset1">
			<data auto_broadcast="numpy" levels="256"/>
			<input>
				<port id="0">
					<dim>1</dim>
					<dim>144</dim>
					<dim>32</dim>
					<dim>32</dim>
				</port>
				<port id="1"/>
				<port id="2"/>
				<port id="3"/>
				<port id="4"/>
			</input>
			<output>
				<port id="5" precision="FP16">
					<dim>1</dim>
					<dim>144</dim>
					<dim>32</dim>
					<dim>32</dim>
				</port>
			</output>
		</layer>
		<layer id="343" name="BatchNormalization_35/mean/Fused_Mul__copy4604857/quantized625910728" type="Const" version="opset1">
			<data element_type="i8" offset="36364" shape="32,144,1,1" size="4608"/>
			<output>
				<port id="0" precision="I8">
					<dim>32</dim>
					<dim>144</dim>
					<dim>1</dim>
					<dim>1</dim>
				</port>
			</output>
		</layer>
		<layer id="344" name="BatchNormalization_35/mean/Fused_Mul__copy4604857/quantized/to_f16" type="Convert" version="opset1">
			<data destination_type="f16"/>
			<input>
				<port id="0">
					<dim>32</dim>
					<dim>144</dim>
					<dim>1</dim>
					<dim>1</dim>
				</port>
			</input>
			<output>
				<port id="1" precision="FP16">
					<dim>32</dim>
					<dim>144</dim>
					<dim>1</dim>
					<dim>1</dim>
				</port>
			</output>
		</layer>
		<layer id="345" name="Conv_34/fq_weights_1/zero_point62729861" type="Const" version="opset1">
			<data element_type="f16" offset="40972" shape="32,1,1,1" size="64"/>
			<output>
				<port id="0" precision="FP16">
					<dim>32</dim>
					<dim>1</dim>
					<dim>1</dim>
					<dim>1</dim>
				</port>
			</output>
		</layer>
		<layer id="346" name="Conv_34/fq_weights_1/minus_zp" type="Subtract" version="opset1">
			<data auto_broadcast="numpy"/>
			<input>
				<port id="0">
					<dim>32</dim>
					<dim>144</dim>
					<dim>1</dim>
					<dim>1</dim>
				</port>
				<port id="1">
					<dim>32</dim>
					<dim>1</dim>
					<dim>1</dim>
					<dim>1</dim>
				</port>
			</input>
			<output>
				<port id="2" precision="FP16">
					<dim>32</dim>
					<dim>144</dim>
					<dim>1</dim>
					<dim>1</dim>
				</port>
			</output>
		</layer>
		<layer id="347" name="Conv_34/fq_weights_1/scale62679417" type="Const" version="opset1">
			<data element_type="f16" offset="41036" shape="32,1,1,1" size="64"/>
			<output>
				<port id="0" precision="FP16">
					<dim>32</dim>
					<dim>1</dim>
					<dim>1</dim>
					<dim>1</dim>
				</port>
			</output>
		</layer>
		<layer id="348" name="Conv_34/fq_weights_1/mulpiply_by_scale" type="Multiply" version="opset1">
			<data auto_broadcast="numpy"/>
			<input>
				<port id="0">
					<dim>32</dim>
					<dim>144</dim>
					<dim>1</dim>
					<dim>1</dim>
				</port>
				<port id="1">
					<dim>32</dim>
					<dim>1</dim>
					<dim>1</dim>
					<dim>1</dim>
				</port>
			</input>
			<output>
				<port id="2" precision="FP16">
					<dim>32</dim>
					<dim>144</dim>
					<dim>1</dim>
					<dim>1</dim>
				</port>
			</output>
		</layer>
		<layer id="349" name="Conv_34" type="Convolution" version="opset1">
			<data auto_pad="explicit" dilations="1,1" pads_begin="0,0" pads_end="0,0" strides="1,1"/>
			<input>
				<port id="0">
					<dim>1</dim>
					<dim>144</dim>
					<dim>32</dim>
					<dim>32</dim>
				</port>
				<port id="1">
					<dim>32</dim>
					<dim>144</dim>
					<dim>1</dim>
					<dim>1</dim>
				</port>
			</input>
			<output>
				<port id="2" precision="FP16">
					<dim>1</dim>
					<dim>32</dim>
					<dim>32</dim>
					<dim>32</dim>
				</port>
			</output>
		</layer>
		<layer id="350" name="data_add_119881199346210536" type="Const" version="opset1">
			<data element_type="f16" offset="41100" shape="1,32,1,1" size="64"/>
			<output>
				<port id="0" precision="FP16">
					<dim>1</dim>
					<dim>32</dim>
					<dim>1</dim>
					<dim>1</dim>
				</port>
			</output>
		</layer>
		<layer id="351" name="BatchNormalization_35/variance/Fused_Add_" type="Add" version="opset1">
			<data auto_broadcast="numpy"/>
			<input>
				<port id="0">
					<dim>1</dim>
					<dim>32</dim>
					<dim>32</dim>
					<dim>32</dim>
				</port>
				<port id="1">
					<dim>1</dim>
					<dim>32</dim>
					<dim>1</dim>
					<dim>1</dim>
				</port>
			</input>
			<output>
				<port id="2" names="385" precision="FP16">
					<dim>1</dim>
					<dim>32</dim>
					<dim>32</dim>
					<dim>32</dim>
				</port>
			</output>
		</layer>
		<layer id="352" name="Add_44/fq_input_1" type="FakeQuantize" version="opset1">
			<data auto_broadcast="numpy" levels="256"/>
			<input>
				<port id="0">
					<dim>1</dim>
					<dim>32</dim>
					<dim>32</dim>
					<dim>32</dim>
				</port>
				<port id="1"/>
				<port id="2"/>
				<port id="3"/>
				<port id="4"/>
			</input>
			<output>
				<port id="5" precision="FP16">
					<dim>1</dim>
					<dim>32</dim>
					<dim>32</dim>
					<dim>32</dim>
				</port>
			</output>
		</layer>
		<layer id="353" name="BatchNormalization_37/mean/Fused_Mul__copy4644859/quantized630710884" type="Const" version="opset1">
			<data element_type="i8" offset="41164" shape="192,32,1,1" size="6144"/>
			<output>
				<port id="0" precision="I8">
					<dim>192</dim>
					<dim>32</dim>
					<dim>1</dim>
					<dim>1</dim>
				</port>
			</output>
		</layer>
		<layer id="354" name="BatchNormalization_37/mean/Fused_Mul__copy4644859/quantized/to_f16" type="Convert" version="opset1">
			<data destination_type="f16"/>
			<input>
				<port id="0">
					<dim>192</dim>
					<dim>32</dim>
					<dim>1</dim>
					<dim>1</dim>
				</port>
			</input>
			<output>
				<port id="1" precision="FP16">
					<dim>192</dim>
					<dim>32</dim>
					<dim>1</dim>
					<dim>1</dim>
				</port>
			</output>
		</layer>
		<layer id="355" name="Conv_36/fq_weights_1/zero_point632010221" type="Const" version="opset1">
			<data element_type="f16" offset="47308" shape="192,1,1,1" size="384"/>
			<output>
				<port id="0" precision="FP16">
					<dim>192</dim>
					<dim>1</dim>
					<dim>1</dim>
					<dim>1</dim>
				</port>
			</output>
		</layer>
		<layer id="356" name="Conv_36/fq_weights_1/minus_zp" type="Subtract" version="opset1">
			<data auto_broadcast="numpy"/>
			<input>
				<port id="0">
					<dim>192</dim>
					<dim>32</dim>
					<dim>1</dim>
					<dim>1</dim>
				</port>
				<port id="1">
					<dim>192</dim>
					<dim>1</dim>
					<dim>1</dim>
					<dim>1</dim>
				</port>
			</input>
			<output>
				<port id="2" precision="FP16">
					<dim>192</dim>
					<dim>32</dim>
					<dim>1</dim>
					<dim>1</dim>
				</port>
			</output>
		</layer>
		<layer id="357" name="Conv_36/fq_weights_1/scale631510785" type="Const" version="opset1">
			<data element_type="f16" offset="47692" shape="192,1,1,1" size="384"/>
			<output>
				<port id="0" precision="FP16">
					<dim>192</dim>
					<dim>1</dim>
					<dim>1</dim>
					<dim>1</dim>
				</port>
			</output>
		</layer>
		<layer id="358" name="Conv_36/fq_weights_1/mulpiply_by_scale" type="Multiply" version="opset1">
			<data auto_broadcast="numpy"/>
			<input>
				<port id="0">
					<dim>192</dim>
					<dim>32</dim>
					<dim>1</dim>
					<dim>1</dim>
				</port>
				<port id="1">
					<dim>192</dim>
					<dim>1</dim>
					<dim>1</dim>
					<dim>1</dim>
				</port>
			</input>
			<output>
				<port id="2" precision="FP16">
					<dim>192</dim>
					<dim>32</dim>
					<dim>1</dim>
					<dim>1</dim>
				</port>
			</output>
		</layer>
		<layer id="359" name="Conv_36" type="Convolution" version="opset1">
			<data auto_pad="explicit" dilations="1,1" pads_begin="0,0" pads_end="0,0" strides="1,1"/>
			<input>
				<port id="0">
					<dim>1</dim>
					<dim>32</dim>
					<dim>32</dim>
					<dim>32</dim>
				</port>
				<port id="1">
					<dim>192</dim>
					<dim>32</dim>
					<dim>1</dim>
					<dim>1</dim>
				</port>
			</input>
			<output>
				<port id="2" precision="FP16">
					<dim>1</dim>
					<dim>192</dim>
					<dim>32</dim>
					<dim>32</dim>
				</port>
			</output>
		</layer>
		<layer id="360" name="data_add_119961200146610788" type="Const" version="opset1">
			<data element_type="f16" offset="48076" shape="1,192,1,1" size="384"/>
			<output>
				<port id="0" precision="FP16">
					<dim>1</dim>
					<dim>192</dim>
					<dim>1</dim>
					<dim>1</dim>
				</port>
			</output>
		</layer>
		<layer id="361" name="BatchNormalization_37/variance/Fused_Add_" type="Add" version="opset1">
			<data auto_broadcast="numpy"/>
			<input>
				<port id="0">
					<dim>1</dim>
					<dim>192</dim>
					<dim>32</dim>
					<dim>32</dim>
				</port>
				<port id="1">
					<dim>1</dim>
					<dim>192</dim>
					<dim>1</dim>
					<dim>1</dim>
				</port>
			</input>
			<output>
				<port id="2" names="387" precision="FP16">
					<dim>1</dim>
					<dim>192</dim>
					<dim>32</dim>
					<dim>32</dim>
				</port>
			</output>
		</layer>
		<layer id="362" name="Clip_38" type="Clamp" version="opset1">
			<data max="6" min="0"/>
			<input>
				<port id="0">
					<dim>1</dim>
					<dim>192</dim>
					<dim>32</dim>
					<dim>32</dim>
				</port>
			</input>
			<output>
				<port id="1" names="388" precision="FP16">
					<dim>1</dim>
					<dim>192</dim>
					<dim>32</dim>
					<dim>32</dim>
				</port>
			</output>
		</layer>
		<layer id="363" name="Conv_39/fq_input_0" type="FakeQuantize" version="opset1">
			<data auto_broadcast="numpy" levels="256"/>
			<input>
				<port id="0">
					<dim>1</dim>
					<dim>192</dim>
					<dim>32</dim>
					<dim>32</dim>
				</port>
				<port id="1">
					<dim>1</dim>
					<dim>192</dim>
					<dim>1</dim>
					<dim>1</dim>
				</port>
				<port id="2">
					<dim>1</dim>
					<dim>192</dim>
					<dim>1</dim>
					<dim>1</dim>
				</port>
				<port id="3">
					<dim>1</dim>
					<dim>192</dim>
					<dim>1</dim>
					<dim>1</dim>
				</port>
				<port id="4">
					<dim>1</dim>
					<dim>192</dim>
					<dim>1</dim>
					<dim>1</dim>
				</port>
			</input>
			<output>
				<port id="5" precision="FP16">
					<dim>1</dim>
					<dim>192</dim>
					<dim>32</dim>
					<dim>32</dim>
				</port>
			</output>
		</layer>
		<layer id="364" name="8182/value818410860" type="Const" version="opset1">
			<data element_type="i64" offset="48460" shape="5" size="40"/>
			<output>
				<port id="0" precision="I64">
					<dim>5</dim>
				</port>
			</output>
		</layer>
		<layer id="365" name="BatchNormalization_40/mean/Fused_Mul__copy4694861/quantized59719855" type="Const" version="opset1">
			<data element_type="i8" offset="48500" shape="192,1,3,3" size="1728"/>
			<output>
				<port id="0" precision="I8">
					<dim>192</dim>
					<dim>1</dim>
					<dim>3</dim>
					<dim>3</dim>
				</port>
			</output>
		</layer>
		<layer id="366" name="BatchNormalization_40/mean/Fused_Mul__copy4694861/quantized/to_f16" type="Convert" version="opset1">
			<data destination_type="f16"/>
			<input>
				<port id="0">
					<dim>192</dim>
					<dim>1</dim>
					<dim>3</dim>
					<dim>3</dim>
				</port>
			</input>
			<output>
				<port id="1" precision="FP16">
					<dim>192</dim>
					<dim>1</dim>
					<dim>3</dim>
					<dim>3</dim>
				</port>
			</output>
		</layer>
		<layer id="367" name="Conv_39/fq_weights_1/zero_point598410803" type="Const" version="opset1">
			<data element_type="f16" offset="50228" shape="192,1,1,1" size="384"/>
			<output>
				<port id="0" precision="FP16">
					<dim>192</dim>
					<dim>1</dim>
					<dim>1</dim>
					<dim>1</dim>
				</port>
			</output>
		</layer>
		<layer id="368" name="Conv_39/fq_weights_1/minus_zp" type="Subtract" version="opset1">
			<data auto_broadcast="numpy"/>
			<input>
				<port id="0">
					<dim>192</dim>
					<dim>1</dim>
					<dim>3</dim>
					<dim>3</dim>
				</port>
				<port id="1">
					<dim>192</dim>
					<dim>1</dim>
					<dim>1</dim>
					<dim>1</dim>
				</port>
			</input>
			<output>
				<port id="2" precision="FP16">
					<dim>192</dim>
					<dim>1</dim>
					<dim>3</dim>
					<dim>3</dim>
				</port>
			</output>
		</layer>
		<layer id="369" name="Conv_39/fq_weights_1/scale597910293" type="Const" version="opset1">
			<data element_type="f16" offset="50612" shape="192,1,1,1" size="384"/>
			<output>
				<port id="0" precision="FP16">
					<dim>192</dim>
					<dim>1</dim>
					<dim>1</dim>
					<dim>1</dim>
				</port>
			</output>
		</layer>
		<layer id="370" name="Conv_39/fq_weights_1/mulpiply_by_scale" type="Multiply" version="opset1">
			<data auto_broadcast="numpy"/>
			<input>
				<port id="0">
					<dim>192</dim>
					<dim>1</dim>
					<dim>3</dim>
					<dim>3</dim>
				</port>
				<port id="1">
					<dim>192</dim>
					<dim>1</dim>
					<dim>1</dim>
					<dim>1</dim>
				</port>
			</input>
			<output>
				<port id="2" precision="FP16">
					<dim>192</dim>
					<dim>1</dim>
					<dim>3</dim>
					<dim>3</dim>
				</port>
			</output>
		</layer>
		<layer id="371" name="8182" type="Reshape" version="opset1">
			<data special_zero="true"/>
			<input>
				<port id="0">
					<dim>192</dim>
					<dim>1</dim>
					<dim>3</dim>
					<dim>3</dim>
				</port>
				<port id="1">
					<dim>5</dim>
				</port>
			</input>
			<output>
				<port id="2" precision="FP16">
					<dim>192</dim>
					<dim>1</dim>
					<dim>1</dim>
					<dim>3</dim>
					<dim>3</dim>
				</port>
			</output>
		</layer>
		<layer id="372" name="Conv_39" type="GroupConvolution" version="opset1">
			<data auto_pad="explicit" dilations="1,1" pads_begin="1,1" pads_end="1,1" strides="1,1"/>
			<input>
				<port id="0">
					<dim>1</dim>
					<dim>192</dim>
					<dim>32</dim>
					<dim>32</dim>
				</port>
				<port id="1">
					<dim>192</dim>
					<dim>1</dim>
					<dim>1</dim>
					<dim>3</dim>
					<dim>3</dim>
				</port>
			</input>
			<output>
				<port id="2" precision="FP16">
					<dim>1</dim>
					<dim>192</dim>
					<dim>32</dim>
					<dim>32</dim>
				</port>
			</output>
		</layer>
		<layer id="373" name="data_add_120041200947110215" type="Const" version="opset1">
			<data element_type="f16" offset="50996" shape="1,192,1,1" size="384"/>
			<output>
				<port id="0" precision="FP16">
					<dim>1</dim>
					<dim>192</dim>
					<dim>1</dim>
					<dim>1</dim>
				</port>
			</output>
		</layer>
		<layer id="374" name="BatchNormalization_40/variance/Fused_Add_" type="Add" version="opset1">
			<data auto_broadcast="numpy"/>
			<input>
				<port id="0">
					<dim>1</dim>
					<dim>192</dim>
					<dim>32</dim>
					<dim>32</dim>
				</port>
				<port id="1">
					<dim>1</dim>
					<dim>192</dim>
					<dim>1</dim>
					<dim>1</dim>
				</port>
			</input>
			<output>
				<port id="2" names="390" precision="FP16">
					<dim>1</dim>
					<dim>192</dim>
					<dim>32</dim>
					<dim>32</dim>
				</port>
			</output>
		</layer>
		<layer id="375" name="Clip_41" type="Clamp" version="opset1">
			<data max="6" min="0"/>
			<input>
				<port id="0">
					<dim>1</dim>
					<dim>192</dim>
					<dim>32</dim>
					<dim>32</dim>
				</port>
			</input>
			<output>
				<port id="1" names="391" precision="FP16">
					<dim>1</dim>
					<dim>192</dim>
					<dim>32</dim>
					<dim>32</dim>
				</port>
			</output>
		</layer>
		<layer id="376" name="Conv_42/fq_input_0" type="FakeQuantize" version="opset1">
			<data auto_broadcast="numpy" levels="256"/>
			<input>
				<port id="0">
					<dim>1</dim>
					<dim>192</dim>
					<dim>32</dim>
					<dim>32</dim>
				</port>
				<port id="1"/>
				<port id="2"/>
				<port id="3"/>
				<port id="4"/>
			</input>
			<output>
				<port id="5" precision="FP16">
					<dim>1</dim>
					<dim>192</dim>
					<dim>32</dim>
					<dim>32</dim>
				</port>
			</output>
		</layer>
		<layer id="377" name="BatchNormalization_43/mean/Fused_Mul__copy4744863/quantized666710008" type="Const" version="opset1">
			<data element_type="i8" offset="51380" shape="32,192,1,1" size="6144"/>
			<output>
				<port id="0" precision="I8">
					<dim>32</dim>
					<dim>192</dim>
					<dim>1</dim>
					<dim>1</dim>
				</port>
			</output>
		</layer>
		<layer id="378" name="BatchNormalization_43/mean/Fused_Mul__copy4744863/quantized/to_f16" type="Convert" version="opset1">
			<data destination_type="f16"/>
			<input>
				<port id="0">
					<dim>32</dim>
					<dim>192</dim>
					<dim>1</dim>
					<dim>1</dim>
				</port>
			</input>
			<output>
				<port id="1" precision="FP16">
					<dim>32</dim>
					<dim>192</dim>
					<dim>1</dim>
					<dim>1</dim>
				</port>
			</output>
		</layer>
		<layer id="379" name="Conv_42/fq_weights_1/zero_point66809951" type="Const" version="opset1">
			<data element_type="f16" offset="57524" shape="32,1,1,1" size="64"/>
			<output>
				<port id="0" precision="FP16">
					<dim>32</dim>
					<dim>1</dim>
					<dim>1</dim>
					<dim>1</dim>
				</port>
			</output>
		</layer>
		<layer id="380" name="Conv_42/fq_weights_1/minus_zp" type="Subtract" version="opset1">
			<data auto_broadcast="numpy"/>
			<input>
				<port id="0">
					<dim>32</dim>
					<dim>192</dim>
					<dim>1</dim>
					<dim>1</dim>
				</port>
				<port id="1">
					<dim>32</dim>
					<dim>1</dim>
					<dim>1</dim>
					<dim>1</dim>
				</port>
			</input>
			<output>
				<port id="2" precision="FP16">
					<dim>32</dim>
					<dim>192</dim>
					<dim>1</dim>
					<dim>1</dim>
				</port>
			</output>
		</layer>
		<layer id="381" name="Conv_42/fq_weights_1/scale667510578" type="Const" version="opset1">
			<data element_type="f16" offset="57588" shape="32,1,1,1" size="64"/>
			<output>
				<port id="0" precision="FP16">
					<dim>32</dim>
					<dim>1</dim>
					<dim>1</dim>
					<dim>1</dim>
				</port>
			</output>
		</layer>
		<layer id="382" name="Conv_42/fq_weights_1/mulpiply_by_scale" type="Multiply" version="opset1">
			<data auto_broadcast="numpy"/>
			<input>
				<port id="0">
					<dim>32</dim>
					<dim>192</dim>
					<dim>1</dim>
					<dim>1</dim>
				</port>
				<port id="1">
					<dim>32</dim>
					<dim>1</dim>
					<dim>1</dim>
					<dim>1</dim>
				</port>
			</input>
			<output>
				<port id="2" precision="FP16">
					<dim>32</dim>
					<dim>192</dim>
					<dim>1</dim>
					<dim>1</dim>
				</port>
			</output>
		</layer>
		<layer id="383" name="Conv_42" type="Convolution" version="opset1">
			<data auto_pad="explicit" dilations="1,1" pads_begin="0,0" pads_end="0,0" strides="1,1"/>
			<input>
				<port id="0">
					<dim>1</dim>
					<dim>192</dim>
					<dim>32</dim>
					<dim>32</dim>
				</port>
				<port id="1">
					<dim>32</dim>
					<dim>192</dim>
					<dim>1</dim>
					<dim>1</dim>
				</port>
			</input>
			<output>
				<port id="2" precision="FP16">
					<dim>1</dim>
					<dim>32</dim>
					<dim>32</dim>
					<dim>32</dim>
				</port>
			</output>
		</layer>
		<layer id="384" name="data_add_12012120174769921" type="Const" version="opset1">
			<data element_type="f16" offset="57652" shape="1,32,1,1" size="64"/>
			<output>
				<port id="0" precision="FP16">
					<dim>1</dim>
					<dim>32</dim>
					<dim>1</dim>
					<dim>1</dim>
				</port>
			</output>
		</layer>
		<layer id="385" name="BatchNormalization_43/variance/Fused_Add_" type="Add" version="opset1">
			<data auto_broadcast="numpy"/>
			<input>
				<port id="0">
					<dim>1</dim>
					<dim>32</dim>
					<dim>32</dim>
					<dim>32</dim>
				</port>
				<port id="1">
					<dim>1</dim>
					<dim>32</dim>
					<dim>1</dim>
					<dim>1</dim>
				</port>
			</input>
			<output>
				<port id="2" names="393" precision="FP16">
					<dim>1</dim>
					<dim>32</dim>
					<dim>32</dim>
					<dim>32</dim>
				</port>
			</output>
		</layer>
		<layer id="386" name="Add_44/fq_input_0" type="FakeQuantize" version="opset1">
			<data auto_broadcast="numpy" levels="256"/>
			<input>
				<port id="0">
					<dim>1</dim>
					<dim>32</dim>
					<dim>32</dim>
					<dim>32</dim>
				</port>
				<port id="1"/>
				<port id="2"/>
				<port id="3"/>
				<port id="4"/>
			</input>
			<output>
				<port id="5" precision="FP16">
					<dim>1</dim>
					<dim>32</dim>
					<dim>32</dim>
					<dim>32</dim>
				</port>
			</output>
		</layer>
		<layer id="387" name="Add_44" type="Add" version="opset1">
			<data auto_broadcast="numpy"/>
			<input>
				<port id="0">
					<dim>1</dim>
					<dim>32</dim>
					<dim>32</dim>
					<dim>32</dim>
				</port>
				<port id="1">
					<dim>1</dim>
					<dim>32</dim>
					<dim>32</dim>
					<dim>32</dim>
				</port>
			</input>
			<output>
				<port id="2" names="394" precision="FP16">
					<dim>1</dim>
					<dim>32</dim>
					<dim>32</dim>
					<dim>32</dim>
				</port>
			</output>
		</layer>
		<layer id="388" name="Add_53/fq_input_1" type="FakeQuantize" version="opset1">
			<data auto_broadcast="numpy" levels="256"/>
			<input>
				<port id="0">
					<dim>1</dim>
					<dim>32</dim>
					<dim>32</dim>
					<dim>32</dim>
				</port>
				<port id="1"/>
				<port id="2"/>
				<port id="3"/>
				<port id="4"/>
			</input>
			<output>
				<port id="5" precision="FP16">
					<dim>1</dim>
					<dim>32</dim>
					<dim>32</dim>
					<dim>32</dim>
				</port>
			</output>
		</layer>
		<layer id="389" name="BatchNormalization_46/mean/Fused_Mul__copy4794865/quantized585110971" type="Const" version="opset1">
			<data element_type="i8" offset="57716" shape="192,32,1,1" size="6144"/>
			<output>
				<port id="0" precision="I8">
					<dim>192</dim>
					<dim>32</dim>
					<dim>1</dim>
					<dim>1</dim>
				</port>
			</output>
		</layer>
		<layer id="390" name="BatchNormalization_46/mean/Fused_Mul__copy4794865/quantized/to_f16" type="Convert" version="opset1">
			<data destination_type="f16"/>
			<input>
				<port id="0">
					<dim>192</dim>
					<dim>32</dim>
					<dim>1</dim>
					<dim>1</dim>
				</port>
			</input>
			<output>
				<port id="1" precision="FP16">
					<dim>192</dim>
					<dim>32</dim>
					<dim>1</dim>
					<dim>1</dim>
				</port>
			</output>
		</layer>
		<layer id="391" name="Conv_45/fq_weights_1/zero_point586410626" type="Const" version="opset1">
			<data element_type="f16" offset="63860" shape="192,1,1,1" size="384"/>
			<output>
				<port id="0" precision="FP16">
					<dim>192</dim>
					<dim>1</dim>
					<dim>1</dim>
					<dim>1</dim>
				</port>
			</output>
		</layer>
		<layer id="392" name="Conv_45/fq_weights_1/minus_zp" type="Subtract" version="opset1">
			<data auto_broadcast="numpy"/>
			<input>
				<port id="0">
					<dim>192</dim>
					<dim>32</dim>
					<dim>1</dim>
					<dim>1</dim>
				</port>
				<port id="1">
					<dim>192</dim>
					<dim>1</dim>
					<dim>1</dim>
					<dim>1</dim>
				</port>
			</input>
			<output>
				<port id="2" precision="FP16">
					<dim>192</dim>
					<dim>32</dim>
					<dim>1</dim>
					<dim>1</dim>
				</port>
			</output>
		</layer>
		<layer id="393" name="Conv_45/fq_weights_1/scale585910605" type="Const" version="opset1">
			<data element_type="f16" offset="64244" shape="192,1,1,1" size="384"/>
			<output>
				<port id="0" precision="FP16">
					<dim>192</dim>
					<dim>1</dim>
					<dim>1</dim>
					<dim>1</dim>
				</port>
			</output>
		</layer>
		<layer id="394" name="Conv_45/fq_weights_1/mulpiply_by_scale" type="Multiply" version="opset1">
			<data auto_broadcast="numpy"/>
			<input>
				<port id="0">
					<dim>192</dim>
					<dim>32</dim>
					<dim>1</dim>
					<dim>1</dim>
				</port>
				<port id="1">
					<dim>192</dim>
					<dim>1</dim>
					<dim>1</dim>
					<dim>1</dim>
				</port>
			</input>
			<output>
				<port id="2" precision="FP16">
					<dim>192</dim>
					<dim>32</dim>
					<dim>1</dim>
					<dim>1</dim>
				</port>
			</output>
		</layer>
		<layer id="395" name="Conv_45" type="Convolution" version="opset1">
			<data auto_pad="explicit" dilations="1,1" pads_begin="0,0" pads_end="0,0" strides="1,1"/>
			<input>
				<port id="0">
					<dim>1</dim>
					<dim>32</dim>
					<dim>32</dim>
					<dim>32</dim>
				</port>
				<port id="1">
					<dim>192</dim>
					<dim>32</dim>
					<dim>1</dim>
					<dim>1</dim>
				</port>
			</input>
			<output>
				<port id="2" precision="FP16">
					<dim>1</dim>
					<dim>192</dim>
					<dim>32</dim>
					<dim>32</dim>
				</port>
			</output>
		</layer>
		<layer id="396" name="data_add_120201202548110473" type="Const" version="opset1">
			<data element_type="f16" offset="64628" shape="1,192,1,1" size="384"/>
			<output>
				<port id="0" precision="FP16">
					<dim>1</dim>
					<dim>192</dim>
					<dim>1</dim>
					<dim>1</dim>
				</port>
			</output>
		</layer>
		<layer id="397" name="BatchNormalization_46/variance/Fused_Add_" type="Add" version="opset1">
			<data auto_broadcast="numpy"/>
			<input>
				<port id="0">
					<dim>1</dim>
					<dim>192</dim>
					<dim>32</dim>
					<dim>32</dim>
				</port>
				<port id="1">
					<dim>1</dim>
					<dim>192</dim>
					<dim>1</dim>
					<dim>1</dim>
				</port>
			</input>
			<output>
				<port id="2" names="396" precision="FP16">
					<dim>1</dim>
					<dim>192</dim>
					<dim>32</dim>
					<dim>32</dim>
				</port>
			</output>
		</layer>
		<layer id="398" name="Clip_47" type="Clamp" version="opset1">
			<data max="6" min="0"/>
			<input>
				<port id="0">
					<dim>1</dim>
					<dim>192</dim>
					<dim>32</dim>
					<dim>32</dim>
				</port>
			</input>
			<output>
				<port id="1" names="397" precision="FP16">
					<dim>1</dim>
					<dim>192</dim>
					<dim>32</dim>
					<dim>32</dim>
				</port>
			</output>
		</layer>
		<layer id="399" name="Conv_48/fq_input_0" type="FakeQuantize" version="opset1">
			<data auto_broadcast="numpy" levels="256"/>
			<input>
				<port id="0">
					<dim>1</dim>
					<dim>192</dim>
					<dim>32</dim>
					<dim>32</dim>
				</port>
				<port id="1">
					<dim>1</dim>
					<dim>192</dim>
					<dim>1</dim>
					<dim>1</dim>
				</port>
				<port id="2">
					<dim>1</dim>
					<dim>192</dim>
					<dim>1</dim>
					<dim>1</dim>
				</port>
				<port id="3">
					<dim>1</dim>
					<dim>192</dim>
					<dim>1</dim>
					<dim>1</dim>
				</port>
				<port id="4">
					<dim>1</dim>
					<dim>192</dim>
					<dim>1</dim>
					<dim>1</dim>
				</port>
			</input>
			<output>
				<port id="5" precision="FP16">
					<dim>1</dim>
					<dim>192</dim>
					<dim>32</dim>
					<dim>32</dim>
				</port>
			</output>
		</layer>
		<layer id="400" name="8150/value815210092" type="Const" version="opset1">
			<data element_type="i64" offset="48460" shape="5" size="40"/>
			<output>
				<port id="0" precision="I64">
					<dim>5</dim>
				</port>
			</output>
		</layer>
		<layer id="401" name="BatchNormalization_49/mean/Fused_Mul__copy4844867/quantized58279996" type="Const" version="opset1">
			<data element_type="i8" offset="65012" shape="192,1,3,3" size="1728"/>
			<output>
				<port id="0" precision="I8">
					<dim>192</dim>
					<dim>1</dim>
					<dim>3</dim>
					<dim>3</dim>
				</port>
			</output>
		</layer>
		<layer id="402" name="BatchNormalization_49/mean/Fused_Mul__copy4844867/quantized/to_f16" type="Convert" version="opset1">
			<data destination_type="f16"/>
			<input>
				<port id="0">
					<dim>192</dim>
					<dim>1</dim>
					<dim>3</dim>
					<dim>3</dim>
				</port>
			</input>
			<output>
				<port id="1" precision="FP16">
					<dim>192</dim>
					<dim>1</dim>
					<dim>3</dim>
					<dim>3</dim>
				</port>
			</output>
		</layer>
		<layer id="403" name="Conv_48/fq_weights_1/zero_point584010461" type="Const" version="opset1">
			<data element_type="f16" offset="66740" shape="192,1,1,1" size="384"/>
			<output>
				<port id="0" precision="FP16">
					<dim>192</dim>
					<dim>1</dim>
					<dim>1</dim>
					<dim>1</dim>
				</port>
			</output>
		</layer>
		<layer id="404" name="Conv_48/fq_weights_1/minus_zp" type="Subtract" version="opset1">
			<data auto_broadcast="numpy"/>
			<input>
				<port id="0">
					<dim>192</dim>
					<dim>1</dim>
					<dim>3</dim>
					<dim>3</dim>
				</port>
				<port id="1">
					<dim>192</dim>
					<dim>1</dim>
					<dim>1</dim>
					<dim>1</dim>
				</port>
			</input>
			<output>
				<port id="2" precision="FP16">
					<dim>192</dim>
					<dim>1</dim>
					<dim>3</dim>
					<dim>3</dim>
				</port>
			</output>
		</layer>
		<layer id="405" name="Conv_48/fq_weights_1/scale583510332" type="Const" version="opset1">
			<data element_type="f16" offset="67124" shape="192,1,1,1" size="384"/>
			<output>
				<port id="0" precision="FP16">
					<dim>192</dim>
					<dim>1</dim>
					<dim>1</dim>
					<dim>1</dim>
				</port>
			</output>
		</layer>
		<layer id="406" name="Conv_48/fq_weights_1/mulpiply_by_scale" type="Multiply" version="opset1">
			<data auto_broadcast="numpy"/>
			<input>
				<port id="0">
					<dim>192</dim>
					<dim>1</dim>
					<dim>3</dim>
					<dim>3</dim>
				</port>
				<port id="1">
					<dim>192</dim>
					<dim>1</dim>
					<dim>1</dim>
					<dim>1</dim>
				</port>
			</input>
			<output>
				<port id="2" precision="FP16">
					<dim>192</dim>
					<dim>1</dim>
					<dim>3</dim>
					<dim>3</dim>
				</port>
			</output>
		</layer>
		<layer id="407" name="8150" type="Reshape" version="opset1">
			<data special_zero="true"/>
			<input>
				<port id="0">
					<dim>192</dim>
					<dim>1</dim>
					<dim>3</dim>
					<dim>3</dim>
				</port>
				<port id="1">
					<dim>5</dim>
				</port>
			</input>
			<output>
				<port id="2" precision="FP16">
					<dim>192</dim>
					<dim>1</dim>
					<dim>1</dim>
					<dim>3</dim>
					<dim>3</dim>
				</port>
			</output>
		</layer>
		<layer id="408" name="Conv_48" type="GroupConvolution" version="opset1">
			<data auto_pad="explicit" dilations="1,1" pads_begin="1,1" pads_end="1,1" strides="1,1"/>
			<input>
				<port id="0">
					<dim>1</dim>
					<dim>192</dim>
					<dim>32</dim>
					<dim>32</dim>
				</port>
				<port id="1">
					<dim>192</dim>
					<dim>1</dim>
					<dim>1</dim>
					<dim>3</dim>
					<dim>3</dim>
				</port>
			</input>
			<output>
				<port id="2" precision="FP16">
					<dim>1</dim>
					<dim>192</dim>
					<dim>32</dim>
					<dim>32</dim>
				</port>
			</output>
		</layer>
		<layer id="409" name="data_add_120281203348610050" type="Const" version="opset1">
			<data element_type="f16" offset="67508" shape="1,192,1,1" size="384"/>
			<output>
				<port id="0" precision="FP16">
					<dim>1</dim>
					<dim>192</dim>
					<dim>1</dim>
					<dim>1</dim>
				</port>
			</output>
		</layer>
		<layer id="410" name="BatchNormalization_49/variance/Fused_Add_" type="Add" version="opset1">
			<data auto_broadcast="numpy"/>
			<input>
				<port id="0">
					<dim>1</dim>
					<dim>192</dim>
					<dim>32</dim>
					<dim>32</dim>
				</port>
				<port id="1">
					<dim>1</dim>
					<dim>192</dim>
					<dim>1</dim>
					<dim>1</dim>
				</port>
			</input>
			<output>
				<port id="2" names="399" precision="FP16">
					<dim>1</dim>
					<dim>192</dim>
					<dim>32</dim>
					<dim>32</dim>
				</port>
			</output>
		</layer>
		<layer id="411" name="Clip_50" type="Clamp" version="opset1">
			<data max="6" min="0"/>
			<input>
				<port id="0">
					<dim>1</dim>
					<dim>192</dim>
					<dim>32</dim>
					<dim>32</dim>
				</port>
			</input>
			<output>
				<port id="1" names="400" precision="FP16">
					<dim>1</dim>
					<dim>192</dim>
					<dim>32</dim>
					<dim>32</dim>
				</port>
			</output>
		</layer>
		<layer id="412" name="Conv_51/fq_input_0" type="FakeQuantize" version="opset1">
			<data auto_broadcast="numpy" levels="256"/>
			<input>
				<port id="0">
					<dim>1</dim>
					<dim>192</dim>
					<dim>32</dim>
					<dim>32</dim>
				</port>
				<port id="1"/>
				<port id="2"/>
				<port id="3"/>
				<port id="4"/>
			</input>
			<output>
				<port id="5" precision="FP16">
					<dim>1</dim>
					<dim>192</dim>
					<dim>32</dim>
					<dim>32</dim>
				</port>
			</output>
		</layer>
		<layer id="413" name="BatchNormalization_52/mean/Fused_Mul__copy4894869/quantized642710668" type="Const" version="opset1">
			<data element_type="i8" offset="67892" shape="32,192,1,1" size="6144"/>
			<output>
				<port id="0" precision="I8">
					<dim>32</dim>
					<dim>192</dim>
					<dim>1</dim>
					<dim>1</dim>
				</port>
			</output>
		</layer>
		<layer id="414" name="BatchNormalization_52/mean/Fused_Mul__copy4894869/quantized/to_f16" type="Convert" version="opset1">
			<data destination_type="f16"/>
			<input>
				<port id="0">
					<dim>32</dim>
					<dim>192</dim>
					<dim>1</dim>
					<dim>1</dim>
				</port>
			</input>
			<output>
				<port id="1" precision="FP16">
					<dim>32</dim>
					<dim>192</dim>
					<dim>1</dim>
					<dim>1</dim>
				</port>
			</output>
		</layer>
		<layer id="415" name="Conv_51/fq_weights_1/zero_point644010395" type="Const" version="opset1">
			<data element_type="f16" offset="74036" shape="32,1,1,1" size="64"/>
			<output>
				<port id="0" precision="FP16">
					<dim>32</dim>
					<dim>1</dim>
					<dim>1</dim>
					<dim>1</dim>
				</port>
			</output>
		</layer>
		<layer id="416" name="Conv_51/fq_weights_1/minus_zp" type="Subtract" version="opset1">
			<data auto_broadcast="numpy"/>
			<input>
				<port id="0">
					<dim>32</dim>
					<dim>192</dim>
					<dim>1</dim>
					<dim>1</dim>
				</port>
				<port id="1">
					<dim>32</dim>
					<dim>1</dim>
					<dim>1</dim>
					<dim>1</dim>
				</port>
			</input>
			<output>
				<port id="2" precision="FP16">
					<dim>32</dim>
					<dim>192</dim>
					<dim>1</dim>
					<dim>1</dim>
				</port>
			</output>
		</layer>
		<layer id="417" name="Conv_51/fq_weights_1/scale64359615" type="Const" version="opset1">
			<data element_type="f16" offset="74100" shape="32,1,1,1" size="64"/>
			<output>
				<port id="0" precision="FP16">
					<dim>32</dim>
					<dim>1</dim>
					<dim>1</dim>
					<dim>1</dim>
				</port>
			</output>
		</layer>
		<layer id="418" name="Conv_51/fq_weights_1/mulpiply_by_scale" type="Multiply" version="opset1">
			<data auto_broadcast="numpy"/>
			<input>
				<port id="0">
					<dim>32</dim>
					<dim>192</dim>
					<dim>1</dim>
					<dim>1</dim>
				</port>
				<port id="1">
					<dim>32</dim>
					<dim>1</dim>
					<dim>1</dim>
					<dim>1</dim>
				</port>
			</input>
			<output>
				<port id="2" precision="FP16">
					<dim>32</dim>
					<dim>192</dim>
					<dim>1</dim>
					<dim>1</dim>
				</port>
			</output>
		</layer>
		<layer id="419" name="Conv_51" type="Convolution" version="opset1">
			<data auto_pad="explicit" dilations="1,1" pads_begin="0,0" pads_end="0,0" strides="1,1"/>
			<input>
				<port id="0">
					<dim>1</dim>
					<dim>192</dim>
					<dim>32</dim>
					<dim>32</dim>
				</port>
				<port id="1">
					<dim>32</dim>
					<dim>192</dim>
					<dim>1</dim>
					<dim>1</dim>
				</port>
			</input>
			<output>
				<port id="2" precision="FP16">
					<dim>1</dim>
					<dim>32</dim>
					<dim>32</dim>
					<dim>32</dim>
				</port>
			</output>
		</layer>
		<layer id="420" name="data_add_120361204149110518" type="Const" version="opset1">
			<data element_type="f16" offset="74164" shape="1,32,1,1" size="64"/>
			<output>
				<port id="0" precision="FP16">
					<dim>1</dim>
					<dim>32</dim>
					<dim>1</dim>
					<dim>1</dim>
				</port>
			</output>
		</layer>
		<layer id="421" name="BatchNormalization_52/variance/Fused_Add_" type="Add" version="opset1">
			<data auto_broadcast="numpy"/>
			<input>
				<port id="0">
					<dim>1</dim>
					<dim>32</dim>
					<dim>32</dim>
					<dim>32</dim>
				</port>
				<port id="1">
					<dim>1</dim>
					<dim>32</dim>
					<dim>1</dim>
					<dim>1</dim>
				</port>
			</input>
			<output>
				<port id="2" names="402" precision="FP16">
					<dim>1</dim>
					<dim>32</dim>
					<dim>32</dim>
					<dim>32</dim>
				</port>
			</output>
		</layer>
		<layer id="422" name="Add_53/fq_input_0" type="FakeQuantize" version="opset1">
			<data auto_broadcast="numpy" levels="256"/>
			<input>
				<port id="0">
					<dim>1</dim>
					<dim>32</dim>
					<dim>32</dim>
					<dim>32</dim>
				</port>
				<port id="1"/>
				<port id="2"/>
				<port id="3"/>
				<port id="4"/>
			</input>
			<output>
				<port id="5" precision="FP16">
					<dim>1</dim>
					<dim>32</dim>
					<dim>32</dim>
					<dim>32</dim>
				</port>
			</output>
		</layer>
		<layer id="423" name="Add_53" type="Add" version="opset1">
			<data auto_broadcast="numpy"/>
			<input>
				<port id="0">
					<dim>1</dim>
					<dim>32</dim>
					<dim>32</dim>
					<dim>32</dim>
				</port>
				<port id="1">
					<dim>1</dim>
					<dim>32</dim>
					<dim>32</dim>
					<dim>32</dim>
				</port>
			</input>
			<output>
				<port id="2" names="403" precision="FP16">
					<dim>1</dim>
					<dim>32</dim>
					<dim>32</dim>
					<dim>32</dim>
				</port>
			</output>
		</layer>
		<layer id="424" name="Conv_54/fq_input_0" type="FakeQuantize" version="opset1">
			<data auto_broadcast="numpy" levels="256"/>
			<input>
				<port id="0">
					<dim>1</dim>
					<dim>32</dim>
					<dim>32</dim>
					<dim>32</dim>
				</port>
				<port id="1"/>
				<port id="2"/>
				<port id="3"/>
				<port id="4"/>
			</input>
			<output>
				<port id="5" precision="FP16">
					<dim>1</dim>
					<dim>32</dim>
					<dim>32</dim>
					<dim>32</dim>
				</port>
			</output>
		</layer>
		<layer id="425" name="BatchNormalization_55/mean/Fused_Mul__copy4944871/quantized652310041" type="Const" version="opset1">
			<data element_type="i8" offset="74228" shape="192,32,1,1" size="6144"/>
			<output>
				<port id="0" precision="I8">
					<dim>192</dim>
					<dim>32</dim>
					<dim>1</dim>
					<dim>1</dim>
				</port>
			</output>
		</layer>
		<layer id="426" name="BatchNormalization_55/mean/Fused_Mul__copy4944871/quantized/to_f16" type="Convert" version="opset1">
			<data destination_type="f16"/>
			<input>
				<port id="0">
					<dim>192</dim>
					<dim>32</dim>
					<dim>1</dim>
					<dim>1</dim>
				</port>
			</input>
			<output>
				<port id="1" precision="FP16">
					<dim>192</dim>
					<dim>32</dim>
					<dim>1</dim>
					<dim>1</dim>
				</port>
			</output>
		</layer>
		<layer id="427" name="Conv_54/fq_weights_1/zero_point653611052" type="Const" version="opset1">
			<data element_type="f16" offset="80372" shape="192,1,1,1" size="384"/>
			<output>
				<port id="0" precision="FP16">
					<dim>192</dim>
					<dim>1</dim>
					<dim>1</dim>
					<dim>1</dim>
				</port>
			</output>
		</layer>
		<layer id="428" name="Conv_54/fq_weights_1/minus_zp" type="Subtract" version="opset1">
			<data auto_broadcast="numpy"/>
			<input>
				<port id="0">
					<dim>192</dim>
					<dim>32</dim>
					<dim>1</dim>
					<dim>1</dim>
				</port>
				<port id="1">
					<dim>192</dim>
					<dim>1</dim>
					<dim>1</dim>
					<dim>1</dim>
				</port>
			</input>
			<output>
				<port id="2" precision="FP16">
					<dim>192</dim>
					<dim>32</dim>
					<dim>1</dim>
					<dim>1</dim>
				</port>
			</output>
		</layer>
		<layer id="429" name="Conv_54/fq_weights_1/scale65319909" type="Const" version="opset1">
			<data element_type="f16" offset="80756" shape="192,1,1,1" size="384"/>
			<output>
				<port id="0" precision="FP16">
					<dim>192</dim>
					<dim>1</dim>
					<dim>1</dim>
					<dim>1</dim>
				</port>
			</output>
		</layer>
		<layer id="430" name="Conv_54/fq_weights_1/mulpiply_by_scale" type="Multiply" version="opset1">
			<data auto_broadcast="numpy"/>
			<input>
				<port id="0">
					<dim>192</dim>
					<dim>32</dim>
					<dim>1</dim>
					<dim>1</dim>
				</port>
				<port id="1">
					<dim>192</dim>
					<dim>1</dim>
					<dim>1</dim>
					<dim>1</dim>
				</port>
			</input>
			<output>
				<port id="2" precision="FP16">
					<dim>192</dim>
					<dim>32</dim>
					<dim>1</dim>
					<dim>1</dim>
				</port>
			</output>
		</layer>
		<layer id="431" name="Conv_54" type="Convolution" version="opset1">
			<data auto_pad="explicit" dilations="1,1" pads_begin="0,0" pads_end="0,0" strides="1,1"/>
			<input>
				<port id="0">
					<dim>1</dim>
					<dim>32</dim>
					<dim>32</dim>
					<dim>32</dim>
				</port>
				<port id="1">
					<dim>192</dim>
					<dim>32</dim>
					<dim>1</dim>
					<dim>1</dim>
				</port>
			</input>
			<output>
				<port id="2" precision="FP16">
					<dim>1</dim>
					<dim>192</dim>
					<dim>32</dim>
					<dim>32</dim>
				</port>
			</output>
		</layer>
		<layer id="432" name="data_add_120441204949610233" type="Const" version="opset1">
			<data element_type="f16" offset="81140" shape="1,192,1,1" size="384"/>
			<output>
				<port id="0" precision="FP16">
					<dim>1</dim>
					<dim>192</dim>
					<dim>1</dim>
					<dim>1</dim>
				</port>
			</output>
		</layer>
		<layer id="433" name="BatchNormalization_55/variance/Fused_Add_" type="Add" version="opset1">
			<data auto_broadcast="numpy"/>
			<input>
				<port id="0">
					<dim>1</dim>
					<dim>192</dim>
					<dim>32</dim>
					<dim>32</dim>
				</port>
				<port id="1">
					<dim>1</dim>
					<dim>192</dim>
					<dim>1</dim>
					<dim>1</dim>
				</port>
			</input>
			<output>
				<port id="2" names="405" precision="FP16">
					<dim>1</dim>
					<dim>192</dim>
					<dim>32</dim>
					<dim>32</dim>
				</port>
			</output>
		</layer>
		<layer id="434" name="Clip_56" type="Clamp" version="opset1">
			<data max="6" min="0"/>
			<input>
				<port id="0">
					<dim>1</dim>
					<dim>192</dim>
					<dim>32</dim>
					<dim>32</dim>
				</port>
			</input>
			<output>
				<port id="1" names="406" precision="FP16">
					<dim>1</dim>
					<dim>192</dim>
					<dim>32</dim>
					<dim>32</dim>
				</port>
			</output>
		</layer>
		<layer id="435" name="Conv_57/fq_input_0" type="FakeQuantize" version="opset1">
			<data auto_broadcast="numpy" levels="256"/>
			<input>
				<port id="0">
					<dim>1</dim>
					<dim>192</dim>
					<dim>32</dim>
					<dim>32</dim>
				</port>
				<port id="1">
					<dim>1</dim>
					<dim>192</dim>
					<dim>1</dim>
					<dim>1</dim>
				</port>
				<port id="2">
					<dim>1</dim>
					<dim>192</dim>
					<dim>1</dim>
					<dim>1</dim>
				</port>
				<port id="3">
					<dim>1</dim>
					<dim>192</dim>
					<dim>1</dim>
					<dim>1</dim>
				</port>
				<port id="4">
					<dim>1</dim>
					<dim>192</dim>
					<dim>1</dim>
					<dim>1</dim>
				</port>
			</input>
			<output>
				<port id="5" precision="FP16">
					<dim>1</dim>
					<dim>192</dim>
					<dim>32</dim>
					<dim>32</dim>
				</port>
			</output>
		</layer>
		<layer id="436" name="8190/value819210284" type="Const" version="opset1">
			<data element_type="i64" offset="48460" shape="5" size="40"/>
			<output>
				<port id="0" precision="I64">
					<dim>5</dim>
				</port>
			</output>
		</layer>
		<layer id="437" name="BatchNormalization_58/mean/Fused_Mul__copy4994873/quantized580310365" type="Const" version="opset1">
…
		<edge from-layer="76" from-port="0" to-layer="505" to-port="1"/>
		<edge from-layer="77" from-port="0" to-layer="505" to-port="2"/>
		<edge from-layer="78" from-port="0" to-layer="505" to-port="3"/>
		<edge from-layer="79" from-port="0" to-layer="505" to-port="4"/>
		<edge from-layer="507" from-port="0" to-layer="508" to-port="0"/>
		<edge from-layer="508" from-port="1" to-layer="510" to-port="0"/>
		<edge from-layer="509" from-port="0" to-layer="510" to-port="1"/>
		<edge from-layer="510" from-port="2" to-layer="512" to-port="0"/>
		<edge from-layer="511" from-port="0" to-layer="512" to-port="1"/>
		<edge from-layer="512" from-port="2" to-layer="513" to-port="0"/>
		<edge from-layer="506" from-port="0" to-layer="513" to-port="1"/>
		<edge from-layer="505" from-port="5" to-layer="514" to-port="0"/>
		<edge from-layer="513" from-port="2" to-layer="514" to-port="1"/>
		<edge from-layer="514" from-port="2" to-layer="516" to-port="0"/>
		<edge from-layer="515" from-port="0" to-layer="516" to-port="1"/>
		<edge from-layer="516" from-port="2" to-layer="517" to-port="0"/>
		<edge from-layer="517" from-port="1" to-layer="518" to-port="0"/>
		<edge from-layer="72" from-port="0" to-layer="518" to-port="1"/>
		<edge from-layer="73" from-port="0" to-layer="518" to-port="2"/>
		<edge from-layer="74" from-port="0" to-layer="518" to-port="3"/>
		<edge from-layer="75" from-port="0" to-layer="518" to-port="4"/>
		<edge from-layer="519" from-port="0" to-layer="520" to-port="0"/>
		<edge from-layer="520" from-port="1" to-layer="522" to-port="0"/>
		<edge from-layer="521" from-port="0" to-layer="522" to-port="1"/>
		<edge from-layer="522" from-port="2" to-layer="524" to-port="0"/>
		<edge from-layer="523" from-port="0" to-layer="524" to-port="1"/>
		<edge from-layer="518" from-port="5" to-layer="525" to-port="0"/>
		<edge from-layer="524" from-port="2" to-layer="525" to-port="1"/>
		<edge from-layer="525" from-port="2" to-layer="527" to-port="0"/>
		<edge from-layer="526" from-port="0" to-layer="527" to-port="1"/>
		<edge from-layer="527" from-port="2" to-layer="528" to-port="0"/>
		<edge from-layer="68" from-port="0" to-layer="528" to-port="1"/>
		<edge from-layer="69" from-port="0" to-layer="528" to-port="2"/>
		<edge from-layer="70" from-port="0" to-layer="528" to-port="3"/>
		<edge from-layer="71" from-port="0" to-layer="528" to-port="4"/>
		<edge from-layer="528" from-port="5" to-layer="529" to-port="0"/>
		<edge from-layer="494" from-port="5" to-layer="529" to-port="1"/>
		<edge from-layer="529" from-port="2" to-layer="530" to-port="0"/>
		<edge from-layer="64" from-port="0" to-layer="530" to-port="1"/>
		<edge from-layer="65" from-port="0" to-layer="530" to-port="2"/>
		<edge from-layer="66" from-port="0" to-layer="530" to-port="3"/>
		<edge from-layer="67" from-port="0" to-layer="530" to-port="4"/>
		<edge from-layer="531" from-port="0" to-layer="532" to-port="0"/>
		<edge from-layer="532" from-port="1" to-layer="534" to-port="0"/>
		<edge from-layer="533" from-port="0" to-layer="534" to-port="1"/>
		<edge from-layer="534" from-port="2" to-layer="536" to-port="0"/>
		<edge from-layer="535" from-port="0" to-layer="536" to-port="1"/>
		<edge from-layer="530" from-port="5" to-layer="537" to-port="0"/>
		<edge from-layer="536" from-port="2" to-layer="537" to-port="1"/>
		<edge from-layer="537" from-port="2" to-layer="539" to-port="0"/>
		<edge from-layer="538" from-port="0" to-layer="539" to-port="1"/>
		<edge from-layer="539" from-port="2" to-layer="540" to-port="0"/>
		<edge from-layer="540" from-port="1" to-layer="541" to-port="0"/>
		<edge from-layer="60" from-port="0" to-layer="541" to-port="1"/>
		<edge from-layer="61" from-port="0" to-layer="541" to-port="2"/>
		<edge from-layer="62" from-port="0" to-layer="541" to-port="3"/>
		<edge from-layer="63" from-port="0" to-layer="541" to-port="4"/>
		<edge from-layer="543" from-port="0" to-layer="544" to-port="0"/>
		<edge from-layer="544" from-port="1" to-layer="546" to-port="0"/>
		<edge from-layer="545" from-port="0" to-layer="546" to-port="1"/>
		<edge from-layer="546" from-port="2" to-layer="548" to-port="0"/>
		<edge from-layer="547" from-port="0" to-layer="548" to-port="1"/>
		<edge from-layer="548" from-port="2" to-layer="549" to-port="0"/>
		<edge from-layer="542" from-port="0" to-layer="549" to-port="1"/>
		<edge from-layer="541" from-port="5" to-layer="550" to-port="0"/>
		<edge from-layer="549" from-port="2" to-layer="550" to-port="1"/>
		<edge from-layer="550" from-port="2" to-layer="552" to-port="0"/>
		<edge from-layer="551" from-port="0" to-layer="552" to-port="1"/>
		<edge from-layer="552" from-port="2" to-layer="553" to-port="0"/>
		<edge from-layer="553" from-port="1" to-layer="554" to-port="0"/>
		<edge from-layer="56" from-port="0" to-layer="554" to-port="1"/>
		<edge from-layer="57" from-port="0" to-layer="554" to-port="2"/>
		<edge from-layer="58" from-port="0" to-layer="554" to-port="3"/>
		<edge from-layer="59" from-port="0" to-layer="554" to-port="4"/>
		<edge from-layer="555" from-port="0" to-layer="556" to-port="0"/>
		<edge from-layer="556" from-port="1" to-layer="558" to-port="0"/>
		<edge from-layer="557" from-port="0" to-layer="558" to-port="1"/>
		<edge from-layer="558" from-port="2" to-layer="560" to-port="0"/>
		<edge from-layer="559" from-port="0" to-layer="560" to-port="1"/>
		<edge from-layer="554" from-port="5" to-layer="561" to-port="0"/>
		<edge from-layer="560" from-port="2" to-layer="561" to-port="1"/>
		<edge from-layer="561" from-port="2" to-layer="563" to-port="0"/>
		<edge from-layer="562" from-port="0" to-layer="563" to-port="1"/>
		<edge from-layer="563" from-port="2" to-layer="564" to-port="0"/>
		<edge from-layer="52" from-port="0" to-layer="564" to-port="1"/>
		<edge from-layer="53" from-port="0" to-layer="564" to-port="2"/>
		<edge from-layer="54" from-port="0" to-layer="564" to-port="3"/>
		<edge from-layer="55" from-port="0" to-layer="564" to-port="4"/>
		<edge from-layer="564" from-port="5" to-layer="565" to-port="0"/>
		<edge from-layer="530" from-port="5" to-layer="565" to-port="1"/>
		<edge from-layer="565" from-port="2" to-layer="566" to-port="0"/>
		<edge from-layer="48" from-port="0" to-layer="566" to-port="1"/>
		<edge from-layer="49" from-port="0" to-layer="566" to-port="2"/>
		<edge from-layer="50" from-port="0" to-layer="566" to-port="3"/>
		<edge from-layer="51" from-port="0" to-layer="566" to-port="4"/>
		<edge from-layer="567" from-port="0" to-layer="568" to-port="0"/>
		<edge from-layer="568" from-port="1" to-layer="570" to-port="0"/>
		<edge from-layer="569" from-port="0" to-layer="570" to-port="1"/>
		<edge from-layer="570" from-port="2" to-layer="572" to-port="0"/>
		<edge from-layer="571" from-port="0" to-layer="572" to-port="1"/>
		<edge from-layer="566" from-port="5" to-layer="573" to-port="0"/>
		<edge from-layer="572" from-port="2" to-layer="573" to-port="1"/>
		<edge from-layer="573" from-port="2" to-layer="575" to-port="0"/>
		<edge from-layer="574" from-port="0" to-layer="575" to-port="1"/>
		<edge from-layer="575" from-port="2" to-layer="576" to-port="0"/>
		<edge from-layer="576" from-port="1" to-layer="577" to-port="0"/>
		<edge from-layer="44" from-port="0" to-layer="577" to-port="1"/>
		<edge from-layer="45" from-port="0" to-layer="577" to-port="2"/>
		<edge from-layer="46" from-port="0" to-layer="577" to-port="3"/>
		<edge from-layer="47" from-port="0" to-layer="577" to-port="4"/>
		<edge from-layer="579" from-port="0" to-layer="580" to-port="0"/>
		<edge from-layer="580" from-port="1" to-layer="582" to-port="0"/>
		<edge from-layer="581" from-port="0" to-layer="582" to-port="1"/>
		<edge from-layer="582" from-port="2" to-layer="584" to-port="0"/>
		<edge from-layer="583" from-port="0" to-layer="584" to-port="1"/>
		<edge from-layer="584" from-port="2" to-layer="585" to-port="0"/>
		<edge from-layer="578" from-port="0" to-layer="585" to-port="1"/>
		<edge from-layer="577" from-port="5" to-layer="586" to-port="0"/>
		<edge from-layer="585" from-port="2" to-layer="586" to-port="1"/>
		<edge from-layer="586" from-port="2" to-layer="588" to-port="0"/>
		<edge from-layer="587" from-port="0" to-layer="588" to-port="1"/>
		<edge from-layer="588" from-port="2" to-layer="589" to-port="0"/>
		<edge from-layer="589" from-port="1" to-layer="590" to-port="0"/>
		<edge from-layer="40" from-port="0" to-layer="590" to-port="1"/>
		<edge from-layer="41" from-port="0" to-layer="590" to-port="2"/>
		<edge from-layer="42" from-port="0" to-layer="590" to-port="3"/>
		<edge from-layer="43" from-port="0" to-layer="590" to-port="4"/>
		<edge from-layer="591" from-port="0" to-layer="592" to-port="0"/>
		<edge from-layer="592" from-port="1" to-layer="594" to-port="0"/>
		<edge from-layer="593" from-port="0" to-layer="594" to-port="1"/>
		<edge from-layer="594" from-port="2" to-layer="596" to-port="0"/>
		<edge from-layer="595" from-port="0" to-layer="596" to-port="1"/>
		<edge from-layer="590" from-port="5" to-layer="597" to-port="0"/>
		<edge from-layer="596" from-port="2" to-layer="597" to-port="1"/>
		<edge from-layer="597" from-port="2" to-layer="599" to-port="0"/>
		<edge from-layer="598" from-port="0" to-layer="599" to-port="1"/>
		<edge from-layer="599" from-port="2" to-layer="600" to-port="0"/>
		<edge from-layer="36" from-port="0" to-layer="600" to-port="1"/>
		<edge from-layer="37" from-port="0" to-layer="600" to-port="2"/>
		<edge from-layer="38" from-port="0" to-layer="600" to-port="3"/>
		<edge from-layer="39" from-port="0" to-layer="600" to-port="4"/>
		<edge from-layer="601" from-port="0" to-layer="602" to-port="0"/>
		<edge from-layer="602" from-port="1" to-layer="604" to-port="0"/>
		<edge from-layer="603" from-port="0" to-layer="604" to-port="1"/>
		<edge from-layer="604" from-port="2" to-layer="606" to-port="0"/>
		<edge from-layer="605" from-port="0" to-layer="606" to-port="1"/>
		<edge from-layer="600" from-port="5" to-layer="607" to-port="0"/>
		<edge from-layer="606" from-port="2" to-layer="607" to-port="1"/>
		<edge from-layer="607" from-port="2" to-layer="609" to-port="0"/>
		<edge from-layer="608" from-port="0" to-layer="609" to-port="1"/>
		<edge from-layer="609" from-port="2" to-layer="610" to-port="0"/>
		<edge from-layer="610" from-port="1" to-layer="611" to-port="0"/>
		<edge from-layer="32" from-port="0" to-layer="611" to-port="1"/>
		<edge from-layer="33" from-port="0" to-layer="611" to-port="2"/>
		<edge from-layer="34" from-port="0" to-layer="611" to-port="3"/>
		<edge from-layer="35" from-port="0" to-layer="611" to-port="4"/>
		<edge from-layer="613" from-port="0" to-layer="614" to-port="0"/>
		<edge from-layer="614" from-port="1" to-layer="616" to-port="0"/>
		<edge from-layer="615" from-port="0" to-layer="616" to-port="1"/>
		<edge from-layer="616" from-port="2" to-layer="618" to-port="0"/>
		<edge from-layer="617" from-port="0" to-layer="618" to-port="1"/>
		<edge from-layer="618" from-port="2" to-layer="619" to-port="0"/>
		<edge from-layer="612" from-port="0" to-layer="619" to-port="1"/>
		<edge from-layer="611" from-port="5" to-layer="620" to-port="0"/>
		<edge from-layer="619" from-port="2" to-layer="620" to-port="1"/>
		<edge from-layer="620" from-port="2" to-layer="622" to-port="0"/>
		<edge from-layer="621" from-port="0" to-layer="622" to-port="1"/>
		<edge from-layer="622" from-port="2" to-layer="623" to-port="0"/>
		<edge from-layer="623" from-port="1" to-layer="624" to-port="0"/>
		<edge from-layer="28" from-port="0" to-layer="624" to-port="1"/>
		<edge from-layer="29" from-port="0" to-layer="624" to-port="2"/>
		<edge from-layer="30" from-port="0" to-layer="624" to-port="3"/>
		<edge from-layer="31" from-port="0" to-layer="624" to-port="4"/>
		<edge from-layer="625" from-port="0" to-layer="626" to-port="0"/>
		<edge from-layer="626" from-port="1" to-layer="628" to-port="0"/>
		<edge from-layer="627" from-port="0" to-layer="628" to-port="1"/>
		<edge from-layer="628" from-port="2" to-layer="630" to-port="0"/>
		<edge from-layer="629" from-port="0" to-layer="630" to-port="1"/>
		<edge from-layer="624" from-port="5" to-layer="631" to-port="0"/>
		<edge from-layer="630" from-port="2" to-layer="631" to-port="1"/>
		<edge from-layer="631" from-port="2" to-layer="633" to-port="0"/>
		<edge from-layer="632" from-port="0" to-layer="633" to-port="1"/>
		<edge from-layer="633" from-port="2" to-layer="634" to-port="0"/>
		<edge from-layer="24" from-port="0" to-layer="634" to-port="1"/>
		<edge from-layer="25" from-port="0" to-layer="634" to-port="2"/>
		<edge from-layer="26" from-port="0" to-layer="634" to-port="3"/>
		<edge from-layer="27" from-port="0" to-layer="634" to-port="4"/>
		<edge from-layer="634" from-port="5" to-layer="635" to-port="0"/>
		<edge from-layer="600" from-port="5" to-layer="635" to-port="1"/>
		<edge from-layer="635" from-port="2" to-layer="636" to-port="0"/>
		<edge from-layer="20" from-port="0" to-layer="636" to-port="1"/>
		<edge from-layer="21" from-port="0" to-layer="636" to-port="2"/>
		<edge from-layer="22" from-port="0" to-layer="636" to-port="3"/>
		<edge from-layer="23" from-port="0" to-layer="636" to-port="4"/>
		<edge from-layer="637" from-port="0" to-layer="638" to-port="0"/>
		<edge from-layer="638" from-port="1" to-layer="640" to-port="0"/>
		<edge from-layer="639" from-port="0" to-layer="640" to-port="1"/>
		<edge from-layer="640" from-port="2" to-layer="642" to-port="0"/>
		<edge from-layer="641" from-port="0" to-layer="642" to-port="1"/>
		<edge from-layer="636" from-port="5" to-layer="643" to-port="0"/>
		<edge from-layer="642" from-port="2" to-layer="643" to-port="1"/>
		<edge from-layer="643" from-port="2" to-layer="645" to-port="0"/>
		<edge from-layer="644" from-port="0" to-layer="645" to-port="1"/>
		<edge from-layer="645" from-port="2" to-layer="646" to-port="0"/>
		<edge from-layer="646" from-port="1" to-layer="647" to-port="0"/>
		<edge from-layer="16" from-port="0" to-layer="647" to-port="1"/>
		<edge from-layer="17" from-port="0" to-layer="647" to-port="2"/>
		<edge from-layer="18" from-port="0" to-layer="647" to-port="3"/>
		<edge from-layer="19" from-port="0" to-layer="647" to-port="4"/>
		<edge from-layer="649" from-port="0" to-layer="650" to-port="0"/>
		<edge from-layer="650" from-port="1" to-layer="652" to-port="0"/>
		<edge from-layer="651" from-port="0" to-layer="652" to-port="1"/>
		<edge from-layer="652" from-port="2" to-layer="654" to-port="0"/>
		<edge from-layer="653" from-port="0" to-layer="654" to-port="1"/>
		<edge from-layer="654" from-port="2" to-layer="655" to-port="0"/>
		<edge from-layer="648" from-port="0" to-layer="655" to-port="1"/>
		<edge from-layer="647" from-port="5" to-layer="656" to-port="0"/>
		<edge from-layer="655" from-port="2" to-layer="656" to-port="1"/>
		<edge from-layer="656" from-port="2" to-layer="658" to-port="0"/>
		<edge from-layer="657" from-port="0" to-layer="658" to-port="1"/>
		<edge from-layer="658" from-port="2" to-layer="659" to-port="0"/>
		<edge from-layer="659" from-port="1" to-layer="660" to-port="0"/>
		<edge from-layer="12" from-port="0" to-layer="660" to-port="1"/>
		<edge from-layer="13" from-port="0" to-layer="660" to-port="2"/>
		<edge from-layer="14" from-port="0" to-layer="660" to-port="3"/>
		<edge from-layer="15" from-port="0" to-layer="660" to-port="4"/>
		<edge from-layer="661" from-port="0" to-layer="662" to-port="0"/>
		<edge from-layer="662" from-port="1" to-layer="664" to-port="0"/>
		<edge from-layer="663" from-port="0" to-layer="664" to-port="1"/>
		<edge from-layer="664" from-port="2" to-layer="666" to-port="0"/>
		<edge from-layer="665" from-port="0" to-layer="666" to-port="1"/>
		<edge from-layer="660" from-port="5" to-layer="667" to-port="0"/>
		<edge from-layer="666" from-port="2" to-layer="667" to-port="1"/>
		<edge from-layer="667" from-port="2" to-layer="669" to-port="0"/>
		<edge from-layer="668" from-port="0" to-layer="669" to-port="1"/>
		<edge from-layer="669" from-port="2" to-layer="670" to-port="0"/>
		<edge from-layer="8" from-port="0" to-layer="670" to-port="1"/>
		<edge from-layer="9" from-port="0" to-layer="670" to-port="2"/>
		<edge from-layer="10" from-port="0" to-layer="670" to-port="3"/>
		<edge from-layer="11" from-port="0" to-layer="670" to-port="4"/>
		<edge from-layer="670" from-port="5" to-layer="671" to-port="0"/>
		<edge from-layer="636" from-port="5" to-layer="671" to-port="1"/>
		<edge from-layer="671" from-port="2" to-layer="672" to-port="0"/>
		<edge from-layer="4" from-port="0" to-layer="672" to-port="1"/>
		<edge from-layer="5" from-port="0" to-layer="672" to-port="2"/>
		<edge from-layer="6" from-port="0" to-layer="672" to-port="3"/>
		<edge from-layer="7" from-port="0" to-layer="672" to-port="4"/>
		<edge from-layer="674" from-port="0" to-layer="675" to-port="0"/>
		<edge from-layer="675" from-port="1" to-layer="677" to-port="0"/>
		<edge from-layer="676" from-port="0" to-layer="677" to-port="1"/>
		<edge from-layer="677" from-port="2" to-layer="679" to-port="0"/>
		<edge from-layer="678" from-port="0" to-layer="679" to-port="1"/>
		<edge from-layer="679" from-port="2" to-layer="680" to-port="0"/>
		<edge from-layer="673" from-port="0" to-layer="680" to-port="1"/>
		<edge from-layer="672" from-port="5" to-layer="681" to-port="0"/>
		<edge from-layer="680" from-port="2" to-layer="681" to-port="1"/>
		<edge from-layer="681" from-port="2" to-layer="683" to-port="0"/>
		<edge from-layer="682" from-port="0" to-layer="683" to-port="1"/>
		<edge from-layer="683" from-port="2" to-layer="684" to-port="0"/>
		<edge from-layer="684" from-port="1" to-layer="685" to-port="0"/>
		<edge from-layer="0" from-port="0" to-layer="685" to-port="1"/>
		<edge from-layer="1" from-port="0" to-layer="685" to-port="2"/>
		<edge from-layer="2" from-port="0" to-layer="685" to-port="3"/>
		<edge from-layer="3" from-port="0" to-layer="685" to-port="4"/>
		<edge from-layer="686" from-port="0" to-layer="687" to-port="0"/>
		<edge from-layer="687" from-port="1" to-layer="689" to-port="0"/>
		<edge from-layer="688" from-port="0" to-layer="689" to-port="1"/>
		<edge from-layer="689" from-port="2" to-layer="691" to-port="0"/>
		<edge from-layer="690" from-port="0" to-layer="691" to-port="1"/>
		<edge from-layer="685" from-port="5" to-layer="692" to-port="0"/>
		<edge from-layer="691" from-port="2" to-layer="692" to-port="1"/>
		<edge from-layer="692" from-port="2" to-layer="694" to-port="0"/>
		<edge from-layer="693" from-port="0" to-layer="694" to-port="1"/>
		<edge from-layer="694" from-port="2" to-layer="696" to-port="0"/>
		<edge from-layer="695" from-port="0" to-layer="696" to-port="1"/>
		<edge from-layer="694" from-port="2" to-layer="697" to-port="0"/>
		<edge from-layer="697" from-port="1" to-layer="700" to-port="0"/>
		<edge from-layer="698" from-port="0" to-layer="700" to-port="1"/>
		<edge from-layer="699" from-port="0" to-layer="700" to-port="2"/>
		<edge from-layer="700" from-port="3" to-layer="702" to-port="0"/>
		<edge from-layer="701" from-port="0" to-layer="702" to-port="1"/>
		<edge from-layer="702" from-port="2" to-layer="704" to-port="0"/>
		<edge from-layer="703" from-port="0" to-layer="704" to-port="1"/>
		<edge from-layer="696" from-port="2" to-layer="705" to-port="0"/>
		<edge from-layer="704" from-port="2" to-layer="705" to-port="1"/>
		<edge from-layer="766" from-port="0" to-layer="767" to-port="0"/>
		<edge from-layer="767" from-port="1" to-layer="769" to-port="0"/>
		<edge from-layer="768" from-port="0" to-layer="769" to-port="1"/>
		<edge from-layer="769" from-port="2" to-layer="771" to-port="0"/>
		<edge from-layer="770" from-port="0" to-layer="771" to-port="1"/>
		<edge from-layer="672" from-port="5" to-layer="772" to-port="0"/>
		<edge from-layer="771" from-port="2" to-layer="772" to-port="1"/>
		<edge from-layer="772" from-port="2" to-layer="774" to-port="0"/>
		<edge from-layer="773" from-port="0" to-layer="774" to-port="1"/>
		<edge from-layer="774" from-port="2" to-layer="775" to-port="0"/>
		<edge from-layer="775" from-port="1" to-layer="776" to-port="0"/>
		<edge from-layer="762" from-port="0" to-layer="776" to-port="1"/>
		<edge from-layer="763" from-port="0" to-layer="776" to-port="2"/>
		<edge from-layer="764" from-port="0" to-layer="776" to-port="3"/>
		<edge from-layer="765" from-port="0" to-layer="776" to-port="4"/>
		<edge from-layer="778" from-port="0" to-layer="779" to-port="0"/>
		<edge from-layer="779" from-port="1" to-layer="781" to-port="0"/>
		<edge from-layer="780" from-port="0" to-layer="781" to-port="1"/>
		<edge from-layer="781" from-port="2" to-layer="783" to-port="0"/>
		<edge from-layer="782" from-port="0" to-layer="783" to-port="1"/>
		<edge from-layer="783" from-port="2" to-layer="784" to-port="0"/>
		<edge from-layer="777" from-port="0" to-layer="784" to-port="1"/>
		<edge from-layer="776" from-port="5" to-layer="785" to-port="0"/>
		<edge from-layer="784" from-port="2" to-layer="785" to-port="1"/>
		<edge from-layer="785" from-port="2" to-layer="787" to-port="0"/>
		<edge from-layer="786" from-port="0" to-layer="787" to-port="1"/>
		<edge from-layer="787" from-port="2" to-layer="788" to-port="0"/>
		<edge from-layer="788" from-port="1" to-layer="789" to-port="0"/>
		<edge from-layer="758" from-port="0" to-layer="789" to-port="1"/>
		<edge from-layer="759" from-port="0" to-layer="789" to-port="2"/>
		<edge from-layer="760" from-port="0" to-layer="789" to-port="3"/>
		<edge from-layer="761" from-port="0" to-layer="789" to-port="4"/>
		<edge from-layer="790" from-port="0" to-layer="791" to-port="0"/>
		<edge from-layer="791" from-port="1" to-layer="793" to-port="0"/>
		<edge from-layer="792" from-port="0" to-layer="793" to-port="1"/>
		<edge from-layer="793" from-port="2" to-layer="795" to-port="0"/>
		<edge from-layer="794" from-port="0" to-layer="795" to-port="1"/>
		<edge from-layer="789" from-port="5" to-layer="796" to-port="0"/>
		<edge from-layer="795" from-port="2" to-layer="796" to-port="1"/>
		<edge from-layer="796" from-port="2" to-layer="798" to-port="0"/>
		<edge from-layer="797" from-port="0" to-layer="798" to-port="1"/>
		<edge from-layer="798" from-port="2" to-layer="799" to-port="0"/>
		<edge from-layer="754" from-port="0" to-layer="799" to-port="1"/>
		<edge from-layer="755" from-port="0" to-layer="799" to-port="2"/>
		<edge from-layer="756" from-port="0" to-layer="799" to-port="3"/>
		<edge from-layer="757" from-port="0" to-layer="799" to-port="4"/>
		<edge from-layer="800" from-port="0" to-layer="801" to-port="0"/>
		<edge from-layer="801" from-port="1" to-layer="803" to-port="0"/>
		<edge from-layer="802" from-port="0" to-layer="803" to-port="1"/>
		<edge from-layer="803" from-port="2" to-layer="805" to-port="0"/>
		<edge from-layer="804" from-port="0" to-layer="805" to-port="1"/>
		<edge from-layer="799" from-port="5" to-layer="806" to-port="0"/>
		<edge from-layer="805" from-port="2" to-layer="806" to-port="1"/>
		<edge from-layer="806" from-port="2" to-layer="808" to-port="0"/>
		<edge from-layer="807" from-port="0" to-layer="808" to-port="1"/>
		<edge from-layer="808" from-port="2" to-layer="809" to-port="0"/>
		<edge from-layer="809" from-port="1" to-layer="810" to-port="0"/>
		<edge from-layer="750" from-port="0" to-layer="810" to-port="1"/>
		<edge from-layer="751" from-port="0" to-layer="810" to-port="2"/>
		<edge from-layer="752" from-port="0" to-layer="810" to-port="3"/>
		<edge from-layer="753" from-port="0" to-layer="810" to-port="4"/>
		<edge from-layer="812" from-port="0" to-layer="813" to-port="0"/>
		<edge from-layer="813" from-port="1" to-layer="815" to-port="0"/>
		<edge from-layer="814" from-port="0" to-layer="815" to-port="1"/>
		<edge from-layer="815" from-port="2" to-layer="817" to-port="0"/>
		<edge from-layer="816" from-port="0" to-layer="817" to-port="1"/>
		<edge from-layer="817" from-port="2" to-layer="818" to-port="0"/>
		<edge from-layer="811" from-port="0" to-layer="818" to-port="1"/>
		<edge from-layer="810" from-port="5" to-layer="819" to-port="0"/>
		<edge from-layer="818" from-port="2" to-layer="819" to-port="1"/>
		<edge from-layer="819" from-port="2" to-layer="821" to-port="0"/>
		<edge from-layer="820" from-port="0" to-layer="821" to-port="1"/>
		<edge from-layer="821" from-port="2" to-layer="822" to-port="0"/>
		<edge from-layer="822" from-port="1" to-layer="823" to-port="0"/>
		<edge from-layer="746" from-port="0" to-layer="823" to-port="1"/>
		<edge from-layer="747" from-port="0" to-layer="823" to-port="2"/>
		<edge from-layer="748" from-port="0" to-layer="823" to-port="3"/>
		<edge from-layer="749" from-port="0" to-layer="823" to-port="4"/>
		<edge from-layer="824" from-port="0" to-layer="825" to-port="0"/>
		<edge from-layer="825" from-port="1" to-layer="827" to-port="0"/>
		<edge from-layer="826" from-port="0" to-layer="827" to-port="1"/>
		<edge from-layer="827" from-port="2" to-layer="829" to-port="0"/>
		<edge from-layer="828" from-port="0" to-layer="829" to-port="1"/>
		<edge from-layer="823" from-port="5" to-layer="830" to-port="0"/>
		<edge from-layer="829" from-port="2" to-layer="830" to-port="1"/>
		<edge from-layer="830" from-port="2" to-layer="832" to-port="0"/>
		<edge from-layer="831" from-port="0" to-layer="832" to-port="1"/>
		<edge from-layer="832" from-port="2" to-layer="833" to-port="0"/>
		<edge from-layer="742" from-port="0" to-layer="833" to-port="1"/>
		<edge from-layer="743" from-port="0" to-layer="833" to-port="2"/>
		<edge from-layer="744" from-port="0" to-layer="833" to-port="3"/>
		<edge from-layer="745" from-port="0" to-layer="833" to-port="4"/>
		<edge from-layer="833" from-port="5" to-layer="834" to-port="0"/>
		<edge from-layer="799" from-port="5" to-layer="834" to-port="1"/>
		<edge from-layer="834" from-port="2" to-layer="835" to-port="0"/>
		<edge from-layer="738" from-port="0" to-layer="835" to-port="1"/>
		<edge from-layer="739" from-port="0" to-layer="835" to-port="2"/>
		<edge from-layer="740" from-port="0" to-layer="835" to-port="3"/>
		<edge from-layer="741" from-port="0" to-layer="835" to-port="4"/>
		<edge from-layer="836" from-port="0" to-layer="837" to-port="0"/>
		<edge from-layer="837" from-port="1" to-layer="839" to-port="0"/>
		<edge from-layer="838" from-port="0" to-layer="839" to-port="1"/>
		<edge from-layer="839" from-port="2" to-layer="841" to-port="0"/>
		<edge from-layer="840" from-port="0" to-layer="841" to-port="1"/>
		<edge from-layer="835" from-port="5" to-layer="842" to-port="0"/>
		<edge from-layer="841" from-port="2" to-layer="842" to-port="1"/>
		<edge from-layer="842" from-port="2" to-layer="844" to-port="0"/>
		<edge from-layer="843" from-port="0" to-layer="844" to-port="1"/>
		<edge from-layer="844" from-port="2" to-layer="845" to-port="0"/>
		<edge from-layer="845" from-port="1" to-layer="846" to-port="0"/>
		<edge from-layer="734" from-port="0" to-layer="846" to-port="1"/>
		<edge from-layer="735" from-port="0" to-layer="846" to-port="2"/>
		<edge from-layer="736" from-port="0" to-layer="846" to-port="3"/>
		<edge from-layer="737" from-port="0" to-layer="846" to-port="4"/>
		<edge from-layer="848" from-port="0" to-layer="849" to-port="0"/>
		<edge from-layer="849" from-port="1" to-layer="851" to-port="0"/>
		<edge from-layer="850" from-port="0" to-layer="851" to-port="1"/>
		<edge from-layer="851" from-port="2" to-layer="853" to-port="0"/>
		<edge from-layer="852" from-port="0" to-layer="853" to-port="1"/>
		<edge from-layer="853" from-port="2" to-layer="854" to-port="0"/>
		<edge from-layer="847" from-port="0" to-layer="854" to-port="1"/>
		<edge from-layer="846" from-port="5" to-layer="855" to-port="0"/>
		<edge from-layer="854" from-port="2" to-layer="855" to-port="1"/>
		<edge from-layer="855" from-port="2" to-layer="857" to-port="0"/>
		<edge from-layer="856" from-port="0" to-layer="857" to-port="1"/>
		<edge from-layer="857" from-port="2" to-layer="858" to-port="0"/>
		<edge from-layer="858" from-port="1" to-layer="859" to-port="0"/>
		<edge from-layer="730" from-port="0" to-layer="859" to-port="1"/>
		<edge from-layer="731" from-port="0" to-layer="859" to-port="2"/>
		<edge from-layer="732" from-port="0" to-layer="859" to-port="3"/>
		<edge from-layer="733" from-port="0" to-layer="859" to-port="4"/>
		<edge from-layer="860" from-port="0" to-layer="861" to-port="0"/>
		<edge from-layer="861" from-port="1" to-layer="863" to-port="0"/>
		<edge from-layer="862" from-port="0" to-layer="863" to-port="1"/>
		<edge from-layer="863" from-port="2" to-layer="865" to-port="0"/>
		<edge from-layer="864" from-port="0" to-layer="865" to-port="1"/>
		<edge from-layer="859" from-port="5" to-layer="866" to-port="0"/>
		<edge from-layer="865" from-port="2" to-layer="866" to-port="1"/>
		<edge from-layer="866" from-port="2" to-layer="868" to-port="0"/>
		<edge from-layer="867" from-port="0" to-layer="868" to-port="1"/>
		<edge from-layer="868" from-port="2" to-layer="869" to-port="0"/>
		<edge from-layer="726" from-port="0" to-layer="869" to-port="1"/>
		<edge from-layer="727" from-port="0" to-layer="869" to-port="2"/>
		<edge from-layer="728" from-port="0" to-layer="869" to-port="3"/>
		<edge from-layer="729" from-port="0" to-layer="869" to-port="4"/>
		<edge from-layer="869" from-port="5" to-layer="870" to-port="0"/>
		<edge from-layer="835" from-port="5" to-layer="870" to-port="1"/>
		<edge from-layer="870" from-port="2" to-layer="871" to-port="0"/>
		<edge from-layer="722" from-port="0" to-layer="871" to-port="1"/>
		<edge from-layer="723" from-port="0" to-layer="871" to-port="2"/>
		<edge from-layer="724" from-port="0" to-layer="871" to-port="3"/>
		<edge from-layer="725" from-port="0" to-layer="871" to-port="4"/>
		<edge from-layer="872" from-port="0" to-layer="873" to-port="0"/>
		<edge from-layer="873" from-port="1" to-layer="875" to-port="0"/>
		<edge from-layer="874" from-port="0" to-layer="875" to-port="1"/>
		<edge from-layer="875" from-port="2" to-layer="877" to-port="0"/>
		<edge from-layer="876" from-port="0" to-layer="877" to-port="1"/>
		<edge from-layer="871" from-port="5" to-layer="878" to-port="0"/>
		<edge from-layer="877" from-port="2" to-layer="878" to-port="1"/>
		<edge from-layer="878" from-port="2" to-layer="880" to-port="0"/>
		<edge from-layer="879" from-port="0" to-layer="880" to-port="1"/>
		<edge from-layer="880" from-port="2" to-layer="881" to-port="0"/>
		<edge from-layer="881" from-port="1" to-layer="882" to-port="0"/>
		<edge from-layer="718" from-port="0" to-layer="882" to-port="1"/>
		<edge from-layer="719" from-port="0" to-layer="882" to-port="2"/>
		<edge from-layer="720" from-port="0" to-layer="882" to-port="3"/>
		<edge from-layer="721" from-port="0" to-layer="882" to-port="4"/>
		<edge from-layer="884" from-port="0" to-layer="885" to-port="0"/>
		<edge from-layer="885" from-port="1" to-layer="887" to-port="0"/>
		<edge from-layer="886" from-port="0" to-layer="887" to-port="1"/>
		<edge from-layer="887" from-port="2" to-layer="889" to-port="0"/>
		<edge from-layer="888" from-port="0" to-layer="889" to-port="1"/>
		<edge from-layer="889" from-port="2" to-layer="890" to-port="0"/>
		<edge from-layer="883" from-port="0" to-layer="890" to-port="1"/>
		<edge from-layer="882" from-port="5" to-layer="891" to-port="0"/>
		<edge from-layer="890" from-port="2" to-layer="891" to-port="1"/>
		<edge from-layer="891" from-port="2" to-layer="893" to-port="0"/>
		<edge from-layer="892" from-port="0" to-layer="893" to-port="1"/>
		<edge from-layer="893" from-port="2" to-layer="894" to-port="0"/>
		<edge from-layer="894" from-port="1" to-layer="895" to-port="0"/>
		<edge from-layer="714" from-port="0" to-layer="895" to-port="1"/>
		<edge from-layer="715" from-port="0" to-layer="895" to-port="2"/>
		<edge from-layer="716" from-port="0" to-layer="895" to-port="3"/>
		<edge from-layer="717" from-port="0" to-layer="895" to-port="4"/>
		<edge from-layer="896" from-port="0" to-layer="897" to-port="0"/>
		<edge from-layer="897" from-port="1" to-layer="899" to-port="0"/>
		<edge from-layer="898" from-port="0" to-layer="899" to-port="1"/>
		<edge from-layer="899" from-port="2" to-layer="901" to-port="0"/>
		<edge from-layer="900" from-port="0" to-layer="901" to-port="1"/>
		<edge from-layer="895" from-port="5" to-layer="902" to-port="0"/>
		<edge from-layer="901" from-port="2" to-layer="902" to-port="1"/>
		<edge from-layer="902" from-port="2" to-layer="904" to-port="0"/>
		<edge from-layer="903" from-port="0" to-layer="904" to-port="1"/>
		<edge from-layer="904" from-port="2" to-layer="905" to-port="0"/>
		<edge from-layer="710" from-port="0" to-layer="905" to-port="1"/>
		<edge from-layer="711" from-port="0" to-layer="905" to-port="2"/>
		<edge from-layer="712" from-port="0" to-layer="905" to-port="3"/>
		<edge from-layer="713" from-port="0" to-layer="905" to-port="4"/>
		<edge from-layer="907" from-port="0" to-layer="908" to-port="0"/>
		<edge from-layer="908" from-port="1" to-layer="910" to-port="0"/>
		<edge from-layer="909" from-port="0" to-layer="910" to-port="1"/>
		<edge from-layer="910" from-port="2" to-layer="912" to-port="0"/>
		<edge from-layer="911" from-port="0" to-layer="912" to-port="1"/>
		<edge from-layer="912" from-port="2" to-layer="913" to-port="0"/>
		<edge from-layer="906" from-port="0" to-layer="913" to-port="1"/>
		<edge from-layer="905" from-port="5" to-layer="914" to-port="0"/>
		<edge from-layer="913" from-port="2" to-layer="914" to-port="1"/>
		<edge from-layer="914" from-port="2" to-layer="916" to-port="0"/>
		<edge from-layer="915" from-port="0" to-layer="916" to-port="1"/>
		<edge from-layer="916" from-port="2" to-layer="917" to-port="0"/>
		<edge from-layer="917" from-port="1" to-layer="918" to-port="0"/>
		<edge from-layer="706" from-port="0" to-layer="918" to-port="1"/>
		<edge from-layer="707" from-port="0" to-layer="918" to-port="2"/>
		<edge from-layer="708" from-port="0" to-layer="918" to-port="3"/>
		<edge from-layer="709" from-port="0" to-layer="918" to-port="4"/>
		<edge from-layer="919" from-port="0" to-layer="920" to-port="0"/>
		<edge from-layer="920" from-port="1" to-layer="922" to-port="0"/>
		<edge from-layer="921" from-port="0" to-layer="922" to-port="1"/>
		<edge from-layer="922" from-port="2" to-layer="924" to-port="0"/>
		<edge from-layer="923" from-port="0" to-layer="924" to-port="1"/>
		<edge from-layer="918" from-port="5" to-layer="925" to-port="0"/>
		<edge from-layer="924" from-port="2" to-layer="925" to-port="1"/>
		<edge from-layer="925" from-port="2" to-layer="927" to-port="0"/>
		<edge from-layer="926" from-port="0" to-layer="927" to-port="1"/>
		<edge from-layer="927" from-port="2" to-layer="929" to-port="0"/>
		<edge from-layer="928" from-port="0" to-layer="929" to-port="1"/>
		<edge from-layer="927" from-port="2" to-layer="930" to-port="0"/>
		<edge from-layer="930" from-port="1" to-layer="933" to-port="0"/>
		<edge from-layer="931" from-port="0" to-layer="933" to-port="1"/>
		<edge from-layer="932" from-port="0" to-layer="933" to-port="2"/>
		<edge from-layer="933" from-port="3" to-layer="935" to-port="0"/>
		<edge from-layer="934" from-port="0" to-layer="935" to-port="1"/>
		<edge from-layer="935" from-port="2" to-layer="937" to-port="0"/>
		<edge from-layer="936" from-port="0" to-layer="937" to-port="1"/>
		<edge from-layer="929" from-port="2" to-layer="938" to-port="0"/>
		<edge from-layer="937" from-port="2" to-layer="938" to-port="1"/>
		<edge from-layer="705" from-port="2" to-layer="939" to-port="0"/>
		<edge from-layer="938" from-port="2" to-layer="939" to-port="1"/>
		<edge from-layer="945" from-port="0" to-layer="946" to-port="0"/>
		<edge from-layer="946" from-port="1" to-layer="948" to-port="0"/>
		<edge from-layer="947" from-port="0" to-layer="948" to-port="1"/>
		<edge from-layer="948" from-port="2" to-layer="950" to-port="0"/>
		<edge from-layer="949" from-port="0" to-layer="950" to-port="1"/>
		<edge from-layer="950" from-port="2" to-layer="951" to-port="0"/>
		<edge from-layer="944" from-port="0" to-layer="951" to-port="1"/>
		<edge from-layer="672" from-port="5" to-layer="952" to-port="0"/>
		<edge from-layer="951" from-port="2" to-layer="952" to-port="1"/>
		<edge from-layer="952" from-port="2" to-layer="954" to-port="0"/>
		<edge from-layer="953" from-port="0" to-layer="954" to-port="1"/>
		<edge from-layer="954" from-port="2" to-layer="955" to-port="0"/>
		<edge from-layer="955" from-port="1" to-layer="956" to-port="0"/>
		<edge from-layer="940" from-port="0" to-layer="956" to-port="1"/>
		<edge from-layer="941" from-port="0" to-layer="956" to-port="2"/>
		<edge from-layer="942" from-port="0" to-layer="956" to-port="3"/>
		<edge from-layer="943" from-port="0" to-layer="956" to-port="4"/>
		<edge from-layer="957" from-port="0" to-layer="958" to-port="0"/>
		<edge from-layer="958" from-port="1" to-layer="960" to-port="0"/>
		<edge from-layer="959" from-port="0" to-layer="960" to-port="1"/>
		<edge from-layer="960" from-port="2" to-layer="962" to-port="0"/>
		<edge from-layer="961" from-port="0" to-layer="962" to-port="1"/>
		<edge from-layer="956" from-port="5" to-layer="963" to-port="0"/>
		<edge from-layer="962" from-port="2" to-layer="963" to-port="1"/>
		<edge from-layer="963" from-port="2" to-layer="965" to-port="0"/>
		<edge from-layer="964" from-port="0" to-layer="965" to-port="1"/>
		<edge from-layer="965" from-port="2" to-layer="967" to-port="0"/>
		<edge from-layer="966" from-port="0" to-layer="967" to-port="1"/>
		<edge from-layer="965" from-port="2" to-layer="968" to-port="0"/>
		<edge from-layer="968" from-port="1" to-layer="971" to-port="0"/>
		<edge from-layer="969" from-port="0" to-layer="971" to-port="1"/>
		<edge from-layer="970" from-port="0" to-layer="971" to-port="2"/>
		<edge from-layer="971" from-port="3" to-layer="973" to-port="0"/>
		<edge from-layer="972" from-port="0" to-layer="973" to-port="1"/>
		<edge from-layer="973" from-port="2" to-layer="975" to-port="0"/>
		<edge from-layer="974" from-port="0" to-layer="975" to-port="1"/>
		<edge from-layer="967" from-port="2" to-layer="976" to-port="0"/>
		<edge from-layer="975" from-port="2" to-layer="976" to-port="1"/>
		<edge from-layer="982" from-port="0" to-layer="983" to-port="0"/>
		<edge from-layer="983" from-port="1" to-layer="985" to-port="0"/>
		<edge from-layer="984" from-port="0" to-layer="985" to-port="1"/>
		<edge from-layer="985" from-port="2" to-layer="987" to-port="0"/>
		<edge from-layer="986" from-port="0" to-layer="987" to-port="1"/>
		<edge from-layer="987" from-port="2" to-layer="988" to-port="0"/>
		<edge from-layer="981" from-port="0" to-layer="988" to-port="1"/>
		<edge from-layer="905" from-port="5" to-layer="989" to-port="0"/>
		<edge from-layer="988" from-port="2" to-layer="989" to-port="1"/>
		<edge from-layer="989" from-port="2" to-layer="991" to-port="0"/>
		<edge from-layer="990" from-port="0" to-layer="991" to-port="1"/>
		<edge from-layer="991" from-port="2" to-layer="992" to-port="0"/>
		<edge from-layer="992" from-port="1" to-layer="993" to-port="0"/>
		<edge from-layer="977" from-port="0" to-layer="993" to-port="1"/>
		<edge from-layer="978" from-port="0" to-layer="993" to-port="2"/>
		<edge from-layer="979" from-port="0" to-layer="993" to-port="3"/>
		<edge from-layer="980" from-port="0" to-layer="993" to-port="4"/>
		<edge from-layer="994" from-port="0" to-layer="995" to-port="0"/>
		<edge from-layer="995" from-port="1" to-layer="997" to-port="0"/>
		<edge from-layer="996" from-port="0" to-layer="997" to-port="1"/>
		<edge from-layer="997" from-port="2" to-layer="999" to-port="0"/>
		<edge from-layer="998" from-port="0" to-layer="999" to-port="1"/>
		<edge from-layer="993" from-port="5" to-layer="1000" to-port="0"/>
		<edge from-layer="999" from-port="2" to-layer="1000" to-port="1"/>
		<edge from-layer="1000" from-port="2" to-layer="1002" to-port="0"/>
		<edge from-layer="1001" from-port="0" to-layer="1002" to-port="1"/>
		<edge from-layer="1002" from-port="2" to-layer="1004" to-port="0"/>
		<edge from-layer="1003" from-port="0" to-layer="1004" to-port="1"/>
		<edge from-layer="1002" from-port="2" to-layer="1005" to-port="0"/>
		<edge from-layer="1005" from-port="1" to-layer="1008" to-port="0"/>
		<edge from-layer="1006" from-port="0" to-layer="1008" to-port="1"/>
		<edge from-layer="1007" from-port="0" to-layer="1008" to-port="2"/>
		<edge from-layer="1008" from-port="3" to-layer="1010" to-port="0"/>
		<edge from-layer="1009" from-port="0" to-layer="1010" to-port="1"/>
		<edge from-layer="1010" from-port="2" to-layer="1012" to-port="0"/>
		<edge from-layer="1011" from-port="0" to-layer="1012" to-port="1"/>
		<edge from-layer="1004" from-port="2" to-layer="1013" to-port="0"/>
		<edge from-layer="1012" from-port="2" to-layer="1013" to-port="1"/>
		<edge from-layer="976" from-port="2" to-layer="1014" to-port="0"/>
		<edge from-layer="1013" from-port="2" to-layer="1014" to-port="1"/>
		<edge from-layer="1014" from-port="2" to-layer="1015" to-port="0"/>
		<edge from-layer="1015" from-port="1" to-layer="1018" to-port="0"/>
		<edge from-layer="1016" from-port="0" to-layer="1018" to-port="1"/>
		<edge from-layer="1017" from-port="0" to-layer="1018" to-port="2"/>
		<edge from-layer="1018" from-port="3" to-layer="1020" to-port="0"/>
		<edge from-layer="1019" from-port="0" to-layer="1020" to-port="1"/>
		<edge from-layer="1020" from-port="2" to-layer="1023" to-port="0"/>
		<edge from-layer="1021" from-port="0" to-layer="1023" to-port="1"/>
		<edge from-layer="1022" from-port="0" to-layer="1023" to-port="2"/>
		<edge from-layer="1014" from-port="2" to-layer="1024" to-port="0"/>
		<edge from-layer="1023" from-port="3" to-layer="1024" to-port="1"/>
		<edge from-layer="1024" from-port="2" to-layer="1025" to-port="0"/>
		<edge from-layer="1025" from-port="1" to-layer="1028" to-port="0"/>
		<edge from-layer="1026" from-port="0" to-layer="1028" to-port="1"/>
		<edge from-layer="1027" from-port="0" to-layer="1028" to-port="2"/>
		<edge from-layer="1028" from-port="3" to-layer="1030" to-port="0"/>
		<edge from-layer="1029" from-port="0" to-layer="1030" to-port="1"/>
		<edge from-layer="1030" from-port="2" to-layer="1032" to-port="0"/>
		<edge from-layer="1031" from-port="0" to-layer="1032" to-port="1"/>
		<edge from-layer="1024" from-port="2" to-layer="1033" to-port="0"/>
		<edge from-layer="1032" from-port="2" to-layer="1033" to-port="1"/>
		<edge from-layer="1033" from-port="2" to-layer="1034" to-port="0"/>
		<edge from-layer="1024" from-port="2" to-layer="1035" to-port="0"/>
		<edge from-layer="1034" from-port="1" to-layer="1036" to-port="0"/>
		<edge from-layer="1035" from-port="1" to-layer="1036" to-port="1"/>
		<edge from-layer="1036" from-port="2" to-layer="1037" to-port="0"/>
		<edge from-layer="1037" from-port="1" to-layer="1040" to-port="0"/>
		<edge from-layer="1038" from-port="0" to-layer="1040" to-port="1"/>
		<edge from-layer="1039" from-port="0" to-layer="1040" to-port="2"/>
		<edge from-layer="1040" from-port="3" to-layer="1042" to-port="0"/>
		<edge from-layer="1041" from-port="0" to-layer="1042" to-port="1"/>
		<edge from-layer="1042" from-port="2" to-layer="1044" to-port="0"/>
		<edge from-layer="1043" from-port="0" to-layer="1044" to-port="1"/>
		<edge from-layer="1036" from-port="2" to-layer="1045" to-port="0"/>
		<edge from-layer="1044" from-port="2" to-layer="1045" to-port="1"/>
		<edge from-layer="671" from-port="2" to-layer="1046" to-port="0"/>
		<edge from-layer="1046" from-port="1" to-layer="1050" to-port="0"/>
		<edge from-layer="1047" from-port="0" to-layer="1050" to-port="1"/>
		<edge from-layer="1048" from-port="0" to-layer="1050" to-port="2"/>
		<edge from-layer="1049" from-port="0" to-layer="1050" to-port="3"/>
		<edge from-layer="202" from-port="2" to-layer="1051" to-port="0"/>
		<edge from-layer="1051" from-port="1" to-layer="1055" to-port="0"/>
		<edge from-layer="1052" from-port="0" to-layer="1055" to-port="1"/>
		<edge from-layer="1053" from-port="0" to-layer="1055" to-port="2"/>
		<edge from-layer="1054" from-port="0" to-layer="1055" to-port="3"/>
		<edge from-layer="1050" from-port="4" to-layer="1056" to-port="0"/>
		<edge from-layer="1055" from-port="4" to-layer="1056" to-port="1"/>
		<edge from-layer="1056" from-port="2" to-layer="1058" to-port="0"/>
		<edge from-layer="1057" from-port="0" to-layer="1058" to-port="1"/>
		<edge from-layer="904" from-port="2" to-layer="1059" to-port="0"/>
		<edge from-layer="1059" from-port="1" to-layer="1063" to-port="0"/>
		<edge from-layer="1060" from-port="0" to-layer="1063" to-port="1"/>
		<edge from-layer="1061" from-port="0" to-layer="1063" to-port="2"/>
		<edge from-layer="1062" from-port="0" to-layer="1063" to-port="3"/>
		<edge from-layer="202" from-port="2" to-layer="1064" to-port="0"/>
		<edge from-layer="1064" from-port="1" to-layer="1068" to-port="0"/>
		<edge from-layer="1065" from-port="0" to-layer="1068" to-port="1"/>
		<edge from-layer="1066" from-port="0" to-layer="1068" to-port="2"/>
		<edge from-layer="1067" from-port="0" to-layer="1068" to-port="3"/>
		<edge from-layer="1063" from-port="4" to-layer="1069" to-port="0"/>
		<edge from-layer="1068" from-port="4" to-layer="1069" to-port="1"/>
		<edge from-layer="1069" from-port="2" to-layer="1071" to-port="0"/>
		<edge from-layer="1070" from-port="0" to-layer="1071" to-port="1"/>
		<edge from-layer="1058" from-port="2" to-layer="1072" to-port="0"/>
		<edge from-layer="1071" from-port="2" to-layer="1072" to-port="1"/>
		<edge from-layer="939" from-port="2" to-layer="1073" to-port="0"/>
		<edge from-layer="1045" from-port="2" to-layer="1073" to-port="1"/>
		<edge from-layer="1072" from-port="2" to-layer="1073" to-port="2"/>
		<edge from-layer="1073" from-port="3" to-layer="1074" to-port="0"/>
	</edges>
	<meta_data>
		<MO_version value="custom_HEAD_149c43044cb1e8ed8cd4f3f196b23f7b3f129a36"/>
		<cli_parameters>
			<caffe_parser_path value="DIR"/>
			<data_type value="FP16"/>
			<disable_nhwc_to_nchw value="False"/>
			<disable_omitting_optional value="False"/>
			<disable_resnet_optimization value="False"/>
			<disable_weights_compression value="False"/>
			<enable_concat_optimization value="False"/>
			<enable_flattening_nested_params value="False"/>
			<enable_ssd_gluoncv value="False"/>
			<extensions value="DIR"/>
			<framework value="onnx"/>
			<freeze_placeholder_with_value value="{}"/>
			<generate_deprecated_IR_V7 value="False"/>
			<input value="image"/>
			<input_model value="DIR/model_ssd.onnx"/>
			<input_model_is_text value="False"/>
			<input_shape value="[1,3,256,256]"/>
			<k value="DIR/CustomLayersMapping.xml"/>
			<keep_shape_ops value="True"/>
			<legacy_ir_generation value="False"/>
			<legacy_mxnet_model value="False"/>
			<log_level value="ERROR"/>
			<mean_scale_values value="{'image': {'mean': None, 'scale': array([255.])}}"/>
			<mean_values value="()"/>
			<model_name value="face-detection-0200"/>
			<output value="['detection_out']"/>
			<output_dir value="DIR"/>
			<placeholder_data_types value="{}"/>
			<placeholder_shapes value="{'image': array([  1,   3, 256, 256])}"/>
			<progress value="False"/>
			<remove_memory value="False"/>
			<remove_output_softmax value="False"/>
			<reverse_input_channels value="True"/>
			<save_params_from_nd value="False"/>
			<scale_values value="image[255.0]"/>
			<silent value="False"/>
			<static_shape value="False"/>
			<stream_output value="False"/>
			<transform value=""/>
			<unset unset_cli_parameters="batch, counts, disable_fusing, disable_gfusing, finegrain_fusing, input_checkpoint, input_meta_graph, input_proto, input_symbol, mean_file, mean_file_offsets, move_to_preprocess, nd_prefix_name, pretrained_model_name, saved_model_dir, saved_model_tags, scale, tensorboard_logdir, tensorflow_custom_layer_libraries, tensorflow_custom_operations_config_update, tensorflow_object_detection_api_pipeline_config, tensorflow_use_custom_operations_config, transformations_config"/>
		</cli_parameters>
	</meta_data>
	<quantization_parameters>
		<config>{
		'compression': {
			'algorithms': [
				{
					'name': 'DefaultQuantization',
					'params': {
						'num_samples_for_tuning': 2000,
						'preset': 'performance',
						'stat_subset_size': 300,
						'use_layerwise_tuning': false
					}
				}
			],
			'dump_intermediate_model': true,
			'target_device': 'ANY'
		},
		'engine': {
			'models': [
				{
					'name': 'face-detection-0200',
					'launchers': [
						{
							'framework': 'dlsdk',
							'adapter': 'ssd',
							'device': 'CPU'
						}
					],
					'datasets': [
						{
							'name': 'wider_without_bkgr',
							'data_source': 'PATH',
							'annotation_conversion': {
								'converter': 'wider',
								'annotation_file': 'PATH',
								'label_start': 0
							},
							'annotation': 'PATH',
							'dataset_meta': 'PATH',
							'preprocessing': [
								{
									'type': 'resize',
									'size': 256
								}
							],
							'postprocessing': [
								{
									'type': 'resize_prediction_boxes'
								},
								{
									'type': 'cast_to_int'
								},
								{
									'type': 'clip_boxes',
									'size': 1024,
									'apply_to': 'annotation'
								},
								{
									'type': 'filter',
									'apply_to': 'annotation',
									'height_range': '64, 1024',
									'is_empty': true
								}
							],
							'metrics': [
								{
									'type': 'map',
									'ignore_difficult': true,
									'include_boundaries': false,
									'allow_multiple_matches_per_ignored': true,
									'distinct_conf': false
								}
							],
							'_command_line_mapping': {
								'annotation_file': 'PATH'
							}
						}
					]
				}
			],
			'stat_requests_number': null,
			'eval_requests_number': null,
			'type': 'accuracy_checker'
		}
	}</config>
		<version value="1.0"/>
		<cli_params value="{'quantize': None, 'preset': None, 'model': None, 'weights': None, 'name': None, 'ac_config': None, 'max_drop': None, 'evaluate': False, 'output_dir': 'PATH', 'direct_dump': True, 'log_level': 'INFO', 'pbar': False, 'stream_output': False, 'keep_uncompressed_weights': False}"/>
	</quantization_parameters>
</net>
